model_final.pth (torch, 143877 bytes, 8 tensors)

fc1.weight f4 [128, 11]
00000000: 198f 9f3f 2bea 93bd 0597 ac3f b0bc 1abe
00000010: 1e83 123d f76b 77be f564 5ebb 272a cabb
00000020: 5849 55bf b59e 71be 19d8 87bf 4ef4 75be
00000030: 63c1 a73e 7ea4 e73e b3bf 523f f2d5 ae3e
00000040: 6bb9 8a3f 809e 073f eef3 0dbf 36c2 2dbf
00000050: 1b29 fcbe 72fc 93be dbe8 e33f be79 7dbf
00000060: 2c36 51bf 42d8 4abf 6900 9bbf cb82 993f
00000070: 5f0c 063f 0fcc c4be 535d d0be c92b 313f
00000080: c03d 80be 0375 8bbf 911b 973e 0422 2abf
00000090: 7146 a53f 353b 443f 3016 913e ea7e 733f
000000a0: 4d23 873c e93d fe3d 5298 463f 3d09 9e3e
000000b0: 8b90 00bf bc45 bbbf 8698 953e e836 793f
000000c0: f053 e33e 0a5f b83f 654a bf3f 9911 24bf
000000d0: 432c 8fbd 7516 4a3f ef1d 9b3e 01cf 92be
000000e0: 7302 183f e5c5 f03d 2980 6abe 83ad a2be
000000f0: 257f 75bd 5b99 10be e88d 0ebf 5351 9cbf
00000100: 7855 a53d 472b cbbe 2d78 9b3f afcd 5f3d
00000110: e336 7d3f 5359 853e a361 553f 4861 3cbe
00000120: d5c3 3a3e bd64 b93e 3e91 393d b4a3 8dbf
00000130: ef0c 05bf 1765 abbf d504 923e 97bf a93f
00000140: 104a 68bf 8092 503f 8529 0dbf 29e3 97bf
00000150: 1ab6 eab8 71dc 153d d889 c53e 3772 dbbe
00000160: 3c09 493e 0a19 e43c 366b 2abe bb47 24bf
00000170: 7ff5 143e f5b6 173d b437 553e 23ac e43d
00000180: 675c acbd ac0f c0bd 966d acbe bb71 a1bf
00000190: 7d62 3fbf 4cc5 803f 0290 f23f e9c3 76be
000001a0: 5aa3 b03d b5e9 d23e ffac 5abf bb98 853d
000001b0: b71b 0cbe 4680 5dbe 1a7d f1be 3c10 383f
000001c0: 3e82 92be fc3e 3a3f ddf7 c53d 2d4b 403f
000001d0: f474 323f 3e36 32bf a586 34bf 8447 033e
000001e0: 27a9 9fbe 931b 5c3e b8c9 2640 2378 09be
000001f0: e5d6 6abf 3a2d 243e a32b 543f 2fa4 ddbf
00000200: 3b7c d3be 61da 3cbf 2a0b b9bf 880e e7be
00000210: 2430 c23e a38f 253f 043e 843e a790 b1be
00000220: 1eaa b5be be3c 1cbf f88d 3cbf 7494 acbe
00000230: 9d5b 49be 83ac 36bf 0839 b8be 8d45 39bf
00000240: b026 cebe d24e e23c f663 403f 2a5e 9f3e
00000250: e28e 1f3e ea74 083e 14c9 2fbf 5f2e 56be
00000260: 1b23 ed3e af4f a53d ca41 653e 30f2 08bf
00000270: e59d ae3e 273e 1dbf 4495 27be cc49 383d
00000280: d212 f93d 3c8a 1bbf 6c8c 19bf da3a 47bf
00000290: a571 d9be 0504 223f 8445 e8be 9ec4 62bf
000002a0: a397 1d3f a943 833f dab7 d5bd 806e 793e
000002b0: 543d 833d 9430 da3e c150 0ebf d42b 96bf
000002c0: 76d6 113f 0095 babe a56b 87bd 662f 633f
000002d0: 9487 693f 167d 1b3e ee24 653f d717 a03e
000002e0: fbcf 153e f05c efbe 7660 99bf d3c8 403e
000002f0: 09ce 4e3d 71a4 d93e 5eb9 08bf ccbf 32bf
00000300: 7deb b9bd 409e 8cbe 3c4e 41be 694b 95be
00000310: e7b4 cd3d ce08 8dbe 2061 e03d 15c0 3c3e
00000320: dc0c 11bf 9e44 333f 02ae 383e 5222 f43e
00000330: 92ff 483e 05f4 123f 9521 9bbe 7284 12bf
00000340: b1c0 15bf 8ca3 b03e 6631 99bf 76a9 d13e
00000350: 230e 653f 6b2f e9bf 35a5 ae3f aaae 2c3f
00000360: 8d5c 51bf 8b85 c4be 32c9 8a3d 6044 c93e
00000370: f100 0dbf b665 c33f ac49 16bf 5880 bcbe
00000380: cb68 653f 6242 573f 309a b4be 9417 443f
00000390: 3539 983e 8050 30bf 0be5 d5bf 2aa5 b43e
000003a0: 4e17 01bf 4c3d 04bf 843e de3c d28a 0ec0
000003b0: 9199 0040 114a aa3f d126 b03e f0c2 1a3e
000003c0: b2ca 2b3c 6ff5 c03e 15a5 2c3e efaf 17be
000003d0: 7546 a43f 8aed 283f 1941 3dbf 76b9 e73f
000003e0: 5101 e33e a4d5 1f3e c755 e73d 1bd4 94bf
000003f0: 9462 1fbf 1f62 2d3e 5ba3 1cbf 78c7 3fbf
1.2465545 -0.07222398 1.3483588 -0.15111041 0.035769574 -0.24162279 -0.0033934687 -0.0061695757
-0.8331504 -0.23595698 -1.0612823 -0.24018976 0.3276473 0.45242685 0.8232376 0.34147602
1.0837835 0.52976227 -0.5545033 -0.6787447 -0.4925011 -0.28903538 1.7805437 -0.9901389
-0.81723285 -0.79236233 -1.21095 1.199304 0.52362627 -0.38436934 -0.406962 0.69207436
-0.25047112 -1.0895084 0.2951322 -0.66458154 1.2912122 0.7665284 0.2833724 0.9511553
0.016496325 0.12414152 0.7757617 0.30866423 -0.50220555 -1.4630656 0.2921793 0.97349405
0.44399977 1.4404004 1.4944578 -0.6408935 -0.06990864 0.78940517 0.30296275 -0.28673556
0.5937874 0.117564954 -0.22900452 -0.31773004 -0.059935708 -0.14121 -0.5568528 -1.2212318
0.080729425 -0.39681455 1.214605 0.054639515 0.98911875 0.2604471 0.83352107 -0.18396485
0.18238766 0.3620967 0.04530453 -1.1065583 -0.5197286 -1.3390225 0.28519312 1.3261594
-0.9073801 0.8147354 -0.5514148 -1.1866199 -0.000111919086 0.036587182 0.3858173 -0.42860577
0.19632429 0.02784397 -0.1664246 -0.6417195 0.14546774 0.037039716 0.2082203 0.11165645
-0.08416062 -0.09377989 -0.33677357 -1.2612833 -0.74759656 1.006021 1.8950198 -0.24098171
0.08624907 0.4119393 -0.8542022 0.06523272 -0.13682447 -0.21630964 -0.47165757 0.7189977
-0.28614992 0.72752357 0.09666417 0.7511471 0.69709706 -0.69614017 -0.7051795 0.1282025
-0.3118374 0.21494894 2.606062 -0.13424735 -0.91734153 0.16032878 0.82879084 -1.731573
-0.41305718 -0.7377072 -1.4456532 -0.45128274 0.37927353 0.646723 0.25828564 -0.34680673
-0.35481352 -0.61030185 -0.7365413 -0.3370701 -0.19663854 -0.7135698 -0.3598101 -0.7237175
-0.4026389 0.027625475 0.7515253 0.3112653 0.15581849 0.13325849 -0.68666196 -0.20916127
0.46315846 0.08071839 0.22388378 -0.5349455 0.3410484 -0.6142296 -0.16365534 0.044992253
0.12161793 -0.60757804 -0.5997989 -0.77824175 -0.42469516 0.63287383 -0.45365536 -0.88581264
0.61559504 1.0255023 -0.104354575 0.24358559 0.06408182 0.42615187 -0.5559197 -1.1732125
0.56967866 -0.36441803 -0.066123284 0.887442 0.912225 0.15184435 0.89509475 0.31268188
0.1463012 -0.46750593 -1.1982563 0.18826608 0.05048946 0.4250827 -0.5340785 -0.6982391
-0.09078119 -0.27464485 -0.188775 -0.29159096 0.1004427 -0.2754578 0.10956025 0.18432648
-0.56660247 0.70026577 0.18035129 0.47682434 0.19628742 0.57403594 -0.3029906 -0.57233346
-0.5849715 0.34499776 -1.19682 0.409496 0.89474696 -1.8217596 1.3644167 0.67454016
-0.81781846 -0.38383135 0.06776656 0.39309978 -0.5507956 1.5265415 -0.58706164 -0.3681667
0.89613026 0.8408567 -0.35273886 0.7659848 0.29731146 -0.68872833 -1.6710523 0.3528226
-0.50426185 -0.5165603 0.02712942 -2.227223 2.009373 1.3303853 0.34404615 0.15113425
0.010485338 0.3768725 0.16859849 -0.14813207 1.2834002 0.65987456 -0.73927456 1.8103473
0.44336942 0.15608841 0.112956576 -1.162723 -0.62259793 0.16931961 -0.6118676 -0.7491374

fc1.bias f4 [128]
00000000: bc65 dabe 57b5 8cbd 772e 60bd 6514 cabd
00000010: 43a9 1a3f 84a2 20bf 39fb b1be fbcf 293f
00000020: 90af cbbe 584e 90be abb4 28be d795 16bf
00000030: c665 f7be b1e6 8f3e a6a8 94be 7f38 cc3e
00000040: 5ac1 f6bd 1cd4 e2be a83e 4bbe 3687 653e
00000050: 3fd6 c53e 745d 053f d8a2 5fbe 608f 7cbd
00000060: 97db 89bd 26e5 49be 7243 a53e 1307 083f
00000070: 7ecb 013f 97dd b4be d50e 78bd 35b2 4fbf
00000080: 7e29 54bf e668 833f 37a3 a13f 5ddd 62bf
00000090: 2181 0cbf b5d7 48bf eb0e 5dbe 321d fcbe
000000a0: 2616 a83d 4a54 273f 62f5 b5bd 3843 95bf
000000b0: 6fe3 e5be 7f59 f63c dd5c 4bbe 3885 18bf
000000c0: 41dd 59bf 88b2 b63e 0cee d2bd 7add 9ebd
000000d0: ada9 7fbe de60 16bf d6af 333e aa31 de3d
000000e0: ca41 dabe 5b2c b53c 707f cf3d 2369 193c
000000f0: 5643 63bd d925 4a3d 1b0a f93e 2af8 60be
00000100: 2225 57bd 8ca4 22bf ec22 093e e3e8 08bf
00000110: 91ea 3ebe e8be 47bf 38d8 9fbe d78e ed3e
00000120: eb7f 95be 3134 1cbe e519 8cbd f7e5 3c3f
00000130: 6761 c03e 726c 09bf 36a2 99be ea14 3abf
00000140: 6c91 333e dd58 cd3e 3894 7bbf 5756 6ebf
00000150: 6023 513e 1a53 18bf f8d1 a83d 503f 6fbf
00000160: 26ba 3abf 8549 b4be 42a1 36be 4a20 c2be
00000170: 8753 05bf 170b 39bd f902 2a3f 0f02 21bf
00000180: 3284 14bf 5ad0 0c3f eb13 ff3d d168 25bf
00000190: 8f3c 94be 0b16 60be a5a6 44be c47d 1a3f
000001a0: d904 1bbf 2667 5bbe 4323 25bf 6e9c cb3d
000001b0: 9de8 cc3c 7920 22bf 0e23 17bf 9dc5 c83d
000001c0: 5e8f 243f a514 853e 1c03 163e e220 3f3f
000001d0: 3023 10bf 7cf2 21bf e863 67be 64af 0b3d
000001e0: c42f e13e a110 3e3f 898c 92bd 5bcc d0be
000001f0: b95c 013f a4d8 6cbf db5b 5e3f af07 20bf
-0.42655742 -0.06870525 -0.054731812 -0.09867171 0.6041452 -0.6274798 -0.3476198 0.6633298
-0.3978238 -0.28184772 -0.1647517 -0.5882239 -0.48319834 0.2810569 -0.2903492 0.39886853
-0.12048598 -0.44302452 -0.1984812 0.2241486 0.3864002 0.52095723 -0.21839464 -0.06166017
-0.067313366 -0.1971632 0.3227802 0.53135794 0.5070113 -0.3532531 -0.06056102 -0.811313
-0.8287581 1.0266387 1.2627934 -0.88619024 -0.54884535 -0.7845414 -0.21587722 -0.49241024
0.082073495 0.6536299 -0.08884694 -1.1661139 -0.4490008 0.030071972 -0.19859643 -0.59578276
-0.8510323 0.35683084 -0.1029931 -0.07757087 -0.2496707 -0.5874156 0.17547545 0.108493164
-0.42628318 0.022115877 0.10131729 0.009363445 -0.05548414 0.0493525 0.48640522 -0.21969667
-0.052525647 -0.6353233 0.13392228 -0.53480357 -0.18644167 -0.78025675 -0.3121965 0.4639804
-0.29199156 -0.15254284 -0.068408765 0.737884 0.37574312 -0.536811 -0.3000657 -0.7268816
0.17535943 0.4010686 -0.9827304 -0.93100494 0.2042365 -0.595018 0.08243173 -0.9345598
-0.7294029 -0.3521234 -0.17834952 -0.3791526 -0.5208058 -0.04517659 0.66410786 -0.62893766
-0.58014214 0.5500542 0.12454971 -0.6461306 -0.28952453 -0.21883409 -0.19204195 0.60348153
-0.6055427 -0.21426067 -0.6450693 0.09941946 0.025013262 -0.633308 -0.59037864 0.09803317
0.6428126 0.25992313 0.14649624 0.7465955 -0.5630369 -0.63260627 -0.22596705 0.034102812
0.43981755 0.74244124 -0.07155711 -0.4078091 0.5053211 -0.9251807 0.8685891 -0.62511724

fc2.weight f4 [128, 128]
00000000: c4fa 003f 5c54 63bf 6523 ddbf ca6f 8ebf
00000010: 0bae 24be 726e e63e 81e8 4b3e 27d8 0e3f
00000020: f900 ef3c 7965 32bf c25e 0bbf c1e4 173f
00000030: bab0 343f 8734 96bd 76cb 4e3f 85c1 483d
00000040: e501 09bf 77b4 093e d3f7 3a3d 84c0 1f3e
00000050: 24c7 66bf 7032 03bf af43 12bf 8d41 21bf
00000060: 2bb5 f8be 1333 00bf f4de 87be dcb2 d1be
00000070: a554 5ebe 8d65 fc3e 8b6e 66bf df87 433e
00000080: 92c3 1dbf ddfd fe3e 6763 6bbe 8cc1 12bf
00000090: e3e1 2ebe 9744 be3e b6b3 84bd 4cbb 05bf
000000a0: a677 15bf 48f5 41be 9935 d73e 54af 11bf
000000b0: 13be febe f4ca e43e 1680 093c ee5c a8bd
000000c0: 249d 433e a630 27bf aa86 45be fded d4be
000000d0: 361f 5ebf 1185 a2be 9e7e b4bc a347 98be
000000e0: 91ee 2cbe 443e 16bf 851c d5be cf39 a0be
000000f0: c4f5 6cbf 7530 c73e 0d15 723e 67ea 48bd
00000100: 06ea 5cbf 8eb1 53be b9dc 12bf 76eb 51bf
00000110: 1e12 ba3e 99c0 cdbb 378b 0f3d 17eb 04be
00000120: f127 ca3e b903 16bf e593 9b3c 19ca 04bf
00000130: 1e04 1bbf 1add 673e 7236 b1bc 1575 80bf
00000140: eb33 b9be 4b0f 323f 5d43 083e 5708 e63e
00000150: cc92 4dbf 0568 4f3e 22bb b8bf 57a2 87be
00000160: 84f1 aa3b c3c6 edbe e98f aabe 2881 db3d
00000170: ca74 07bf da73 f03d c4b2 56bf 30b0 edbe
00000180: c003 adbe 4468 a6bf 1fba 16bf 5060 1bbf
00000190: ad95 803d c1d9 403f 2cc8 58bf 05db 0c3e
000001a0: c13a 46be 4bbd 3b3b fa19 823e 3f94 19bf
000001b0: a1f6 a63e b982 1e3e 9909 0ebf ca85 5ebf
000001c0: 6b44 30bf a538 793f 82d9 2dbf 88ea 6abf
000001d0: 14c2 14bf ff13 c5be 6b23 95bd 050e 55bf
000001e0: a7ec f0be b55f 54be 2a64 3ebf 5f3b 2dbf
000001f0: add2 41bf e29b dcbf 6c7a 383e 2f36 12bf
00000200: 123b e73e 2706 7d3c 1399 0abf b41f 07be
00000210: 1ad8 4abe cac8 febe 6563 873e d0a0 38bf
00000220: 0144 2cbe 79df 18bc 7d35 03be c487 e73d
00000230: 580d a837 d53f 08be ed53 a0be 4ba3 15be
00000240: fa31 94be d96c 28be 127e a5be a5f6 c4bd
00000250: 1b25 393f 78b9 48be e296 023e 2911 4abe
00000260: 0475 bfbe c4b3 603d 3188 c13c 4085 0dbe
00000270: d9cd 863d ed4c 01be e59c 6ebe 6bac ab3d
00000280: 298a 2ebf ab9d 49bf 7db7 ecbd e536 7fbe
00000290: 6c9d 58be 1568 483e 919f 453d c578 2b3d
000002a0: 3a5e 283e d3fd cfbd f0ac 50be b567 10bf
000002b0: 3f4c 1bbe a9f8 803d 531a 143d e349 423e
000002c0: ad8f e13e 5bd0 66be aec1 01be 60db e33e
000002d0: 7f32 7cbe dccf 833d e549 96be 534e 42be
000002e0: 5ecd 5d3d c453 a5be ee1a c7be 3462 31bd
000002f0: 13e3 52be 0188 27bd d7b1 05be 5c1f d53d
00000300: 7f1e 3abc 2937 b43d 7150 7fbe 213b 84be
00000310: 61f2 1abe 75f2 86bd bfe2 d2bd 5d71 5ebe
00000320: e79e cebe 6133 98be 100c 88be 5de6 70be
00000330: 1230 86be d40a e4bd 404e 6bbd 0b0f d5be
00000340: 10d2 1ebe d7a6 cebc f848 b8be 8360 4dbe
00000350: 7ff2 8abe cf1d bcbd e27e c53e 42de d2be
00000360: b44b c53c 5f94 80be 7d42 9abe 9321 c93d
00000370: 3f6b 4dbe 75d1 673e cfb4 afbe 63ad bdbe
00000380: d9e2 133e 43d2 993d 98de 83be 7ad6 0abe
00000390: e18f 1b3e 28a2 c9bd b604 b9be 949e 573e
000003a0: 5baf 51bf b14c e1be 5348 5a3e ec00 8cbe
000003b0: 0c6a f13d c9f9 59bd dec5 3dbe 55d3 a6be
000003c0: 6ac7 66bd e39c f73e ab6c a5be 7426 f4be
000003d0: 54d1 71bd e31e fabd ea16 e53e 0ebc 79be
000003e0: f7dc dfbd bc11 21bd ed0b 67be 48e9 6fbe
000003f0: 17ba 1ebe add4 54be 65dc 36be 1efb 6dbf
0.5038264 -0.888006 -1.7276427 -1.1127865 -0.16082017 0.45006138 0.19912912 0.5579857
0.029175268 -0.69686085 -0.54441464 0.59333426 0.70582163 -0.073342375 0.80779207 0.04901268
-0.53518516 0.13447748 0.0456465 0.15600783 -0.90147614 -0.51248837 -0.57134527 -0.6299065
-0.4857572 -0.50077933 -0.26537287 -0.4095677 -0.21711977 0.49296227 -0.90012425 0.190948
-0.6162654 0.49803057 -0.22987138 -0.5732658 -0.17078356 0.37161705 -0.0647959 -0.5223892
-0.58385694 -0.18941224 0.4203308 -0.56908154 -0.4975439 0.4468609 0.0083923545 -0.0822085
0.19102913 -0.65308607 -0.19289652 -0.4158782 -0.86766374 -0.31742147 -0.022033032 -0.29742154
-0.16887881 -0.5868876 -0.4162332 -0.31294104 -0.9256251 0.38904157 0.23640843 -0.04905167
-0.8629459 -0.206732 -0.57368046 -0.8199991 0.36341947 -0.006279063 0.035044875 -0.12980305
0.39483598 -0.5859943 0.01899142 -0.51870877 -0.6055316 0.22642937 -0.021632407 -1.0035731
-0.36172423 0.69554585 0.13306947 0.44928238 -0.8030212 0.20254524 -1.4432108 -0.26491043
0.005216779 -0.46440706 -0.3331292 0.10717994 -0.5291258 0.11740847 -0.83866525 -0.46423483
-0.33791924 -1.3000569 -0.5887775 -0.60693836 0.062785484 0.75332266 -0.8468044 0.13755424
-0.1935835 0.0028646763 0.25410444 -0.5999183 0.32610038 0.15479554 -0.55483395 -0.86922896
-0.688544 0.9735206 -0.67910016 -0.91764116 -0.5810864 -0.38491818 -0.07282146 -0.8322452
-0.4705555 -0.20739634 -0.7437159 -0.6766872 -0.7571209 -1.7235072 0.1801545 -0.5711393
0.45162255 0.015443361 -0.5413982 -0.13195688 -0.19808999 -0.49762565 0.2644302 -0.7212038
-0.16822816 -0.009330624 -0.12813373 0.11305192 2.0033374e-05 -0.133056 -0.3131403 -0.14613073
-0.2894438 -0.16447772 -0.32322747 -0.09617356 0.72322243 -0.19602 0.1275287 -0.19733109
-0.37393963 0.054858938 0.023624511 -0.13820362 0.06582231 -0.12627001 -0.23302038 0.083824955
-0.68179566 -0.7875621 -0.11558435 -0.24923284 -0.21153802 0.19570954 0.048247878 0.04186322
0.16442195 -0.10155835 -0.2037847 -0.56408244 -0.15165804 0.06297428 0.036157917 0.18973498
0.44054928 -0.22540419 -0.12671539 0.44503307 -0.24628638 0.064361304 -0.29353252 -0.18975191
0.05415093 -0.3229047 -0.38887733 -0.043306544 -0.20594434 -0.040901188 -0.13056122 0.10406372
-0.01135981 0.087995835 -0.2493303 -0.25826362 -0.15131523 -0.06589214 -0.10297155 -0.21722932
-0.40355608 -0.297267 -0.26571703 -0.23525377 -0.2620855 -0.11134878 -0.057447672 -0.4161304
-0.1550982 -0.02522604 -0.3599317 -0.20056348 -0.27138135 -0.09185373 0.38573366 -0.41185194
0.02408395 -0.25113198 -0.30128852 0.09820857 -0.20060442 0.22638495 -0.34317634 -0.37046346
0.14442004 0.07510807 -0.25755763 -0.13558379 0.15191604 -0.09845382 -0.36136407 0.21056587
-0.81908196 -0.44003823 0.21316652 -0.27344453 0.11787805 -0.05321673 -0.18532512 -0.3258311
-0.05634252 0.48361883 -0.3230947 -0.47685587 -0.05903752 -0.122129224 0.44744045 -0.24388143
-0.109308176 -0.039323553 -0.22563143 -0.23428833 -0.15500675 -0.20784254 -0.17857511 -0.929613

fc2.bias f4 [128]
00000000: a43e 88be 2f25 a0bd 3c76 86be 3586 d6be
00000010: 60b0 64bd 5e16 af3e 9fc4 ed3e b1f4 ae3e
00000020: 6c9e 163f e1d7 5a3e 632d 273f c3a6 6c3f
00000030: fe30 86be 3ea1 ecbd 4cac cbbe 9176 c8bd
00000040: 59b4 093e c444 f0be 301a 383f 722a f53c
00000050: 4c73 b5bd d95c f93c d06d 9b3f 3f74 50be
00000060: 6296 013e 9a1a 943e 6c55 3a3f be40 6a3f
00000070: d43a 3d3e fae0 e23e 494a 89bc ddd3 febd
00000080: 7faf 4c3f d99a 8a3f 322f 61bc 8a4d ecbd
00000090: 5211 4e3e c72c 593f 74dc 983e 8a6e 0d3f
000000a0: 3fd1 7f3e 55c7 2b3f 2447 04be 86ec 9f3c
000000b0: 9bd4 043f 33a0 c2bd 5ffb 4e3e f241 133f
000000c0: da1c dc3e bb80 8a3e 37eb 963e 0bc7 23bd
000000d0: 98b8 973f 46c9 5a3e 559e 60be e705 813e
000000e0: 3dd7 cdbe a184 243e d86f 303d 1bf1 163f
000000f0: 3c7e 0c3f 6f7b 013e 3eda 863f 3e19 1c3f
00000100: 07e3 b8bd 73ca d73d 431e 363f a02e ee3e
00000110: 3e76 843e eb34 f73d 0f52 76bd 6599 123f
00000120: 10c1 72bd 7a03 483f aa81 883e 0348 9c3e
00000130: 7d2c 213d 8a11 c63e e5b9 1fbe 5e9b 253e
00000140: 6367 fabd 8320 92bc f049 be3e 0ed8 cc3e
00000150: 45d1 9cbe 80f1 cc3e 9086 a53e 6e75 153f
00000160: 8f87 243f 4f0a a3bd 9480 cabd 9179 3dbc
00000170: 3c71 743f 449d 72be 8d64 ab3e 182e 553f
00000180: b867 213e 84e6 7ebd 69be 3ebe 62d0 07be
00000190: c32b 1d3f 2e06 4d3f 8419 a33d 2ae7 193d
000001a0: b3c3 133f d7c0 9dbd f46a 1d3e 6f50 49be
000001b0: b17e 0a3f a872 08be d495 93bd 2892 1e3f
000001c0: 9bd1 4bbe 57d2 663f 6e52 b13e b3fe 6a3d
000001d0: fcb0 e13d 3d7b 2e3d 0529 683e d8a5 253f
000001e0: 55ff 9abc 72df 37bd 0091 053f 813d 193f
000001f0: 9985 c93e 1872 613f 1eeb f73d 8dc5 443f
-0.2661029 -0.07819592 -0.2626208 -0.41899267 -0.055832267 0.34196752 0.46439072 0.3417106
0.5883548 0.21371414 0.6530363 0.9244196 -0.26209253 -0.11554192 -0.3977989 -0.0978824
0.13447703 -0.46927464 0.7191496 0.029927466 -0.08859882 0.030439781 1.2142887 -0.20356844
0.12655023 0.28926545 0.72786593 0.9150504 0.18479472 0.44312268 -0.016759055 -0.124427535
0.79955286 1.0828506 -0.013744162 -0.11538227 0.20123795 0.8483395 0.29855692 0.55246794
0.24982165 0.6710103 -0.12917763 0.019521963 0.5188691 -0.09503212 0.20213078 0.575225
0.42990762 0.2705134 0.2947633 -0.039984744 1.1853209 0.21365842 -0.21935399 0.25199816
-0.40203276 0.16066219 0.043075413 0.5896165 0.5488012 0.12644742 1.0535352 0.60976017
-0.09027677 0.10536661 0.71139926 0.46519947 0.25871462 0.1207064 -0.06013685 0.5726531
-0.05926615 0.78130305 0.26661426 0.3052369 0.039349068 0.38685256 -0.15598257 0.16172549
-0.12226751 -0.017837768 0.37165785 0.40008587 -0.3062841 0.40028 0.32329226 0.5838231
0.64269346 -0.079609506 -0.098878056 -0.011564628 0.9548528 -0.23692805 0.33475152 0.8327346
0.15762222 -0.062231556 -0.18627323 -0.13263085 0.613949 0.80087554 0.07963851 0.03757397
0.5772049 -0.07702797 0.1537283 -0.19659589 0.54099566 -0.13324988 -0.07206312 0.61941767
-0.19904177 0.90164703 0.346332 0.057371806 0.11020085 0.042597998 0.22671898 0.6470618
-0.01892058 -0.04489083 0.5217438 0.5985947 0.3935974 0.8806472 0.12105392 0.7686394

fc3.weight f4 [128, 128]
00000000: 3607 94bd aad1 f7bc e72a f83c 845b b9bc
00000010: 79ec 0aba d106 bcbc 118f a2bc f6f0 1a3b
00000020: 372c 05be bb08 5ebd 1fb1 603c bc3b 3fbd
00000030: a591 b3bc b64e 953d a67a 093c 9289 6bbd
00000040: 60b5 a0bd 851c 9dbd e397 ce3c b4a3 1f3c
00000050: fce0 aebc c1a1 34bd 375b 6bbd 6e75 c03d
00000060: be2d 3fbc d9ef bbbd 21af 453c 2e7f b2bd
00000070: 8719 35bd fbf4 95bd 04cb 4c3a 0168 9a3d
00000080: 877a b7bd 9abd fdbc c4e9 3dbd 5f40 e8bc
00000090: 097a a1bd 78e1 a0bd a635 803c 5074 3fbb
000000a0: 7fc5 91bb cfa1 47bd b9a5 17bd 83de f93c
000000b0: ae35 93bd 6d31 8cbc 9a60 81bd 891e 11bc
000000c0: 2d75 82bd 201f 4ebd bea2 1abd 8200 483d
000000d0: 54e0 60bd 243b ddba 3114 903d caff c13d
000000e0: 317a 0b3d b1c5 863d f6ff e7bd 373a bfbc
000000f0: 419f 98bd eede 8d3c e70f 733d 7d08 04be
00000100: 05a6 afbd 63bf 81bd cd66 f23c 1cbc 61bd
00000110: 9c60 84bd 63dd bdbd 27a1 b1bc 4fca babd
00000120: 3a72 3a3d 27c6 afbd dc84 debc 75aa fa3c
00000130: e455 94bd 0bf9 8dbc f9f5 c93c 6deb 77bc
00000140: 4c53 4e3d 1165 883c 43ba 593c 98d9 3fbc
00000150: 001b d4bd baa3 46bd d6a3 00bd 9d7e 9abd
00000160: 276a 48bd e48c c63c a8de 013c ca42 7cbd
00000170: 8110 ebbc 1444 a73d ce52 b3bd d816 ac3c
00000180: d812 b6bd bea3 3f3d 7e74 873d 883c 88bd
00000190: 2236 94bd 18ae bebc a5e8 d33c 3563 b0bd
000001a0: 2fd1 5f3d df24 813d 03e8 23ba 2bcd 2cbd
000001b0: 601d ebbd 1575 7abb 92a2 7fbc e036 72bd
000001c0: 5d44 183d 7497 99bc d484 a83b 98f5 7fbc
000001d0: d3f7 c3bd b11f 34bd f96e 413c 26b9 563d
000001e0: 91a4 eabc da09 a33d 9f03 5cbd f97b 08bd
000001f0: 65c9 2a3c 4e69 00be 15fe 233d 710a 4ebc
00000200: a7a3 fa3c 5306 f2bc 8baa c13c 4de4 993c
00000210: 302e 3cbc 19eb 8dbc a00a babd 118d aa3c
00000220: 3a8c dbbc f3e5 303d 22fa 2c3d 4614 5e3d
00000230: b780 e4bd 7c71 7dbb 081b 943c 12af 4b3c
00000240: 2c06 d9bd 86c8 533d 6713 2dbd 346d 3cbd
00000250: a76b 79bd 5aa2 783d 7270 41bd a212 debd
00000260: 7a18 e6bd 8f4d a3bd c4c1 10be b040 f33c
00000270: ee2f 723a e1e0 92bd d01f 713d d49e 813d
00000280: ad4b 82bd 45c8 723b fd70 a33d 0952 9ebd
00000290: 9bf5 07be 439c 98bc 1885 86bc 84c1 38bd
000002a0: a11f c2bd 823e acbd 5a72 48bd 1887 1ebd
000002b0: 3898 91bd c588 ee3b 399f 363c de67 ec3c
000002c0: c4cc cbbc dea8 dfbc 7128 62bd ae98 c83c
000002d0: 6965 803c 2289 ab3c 4667 3f3d 1e1c dabd
000002e0: ecbd bc3c 07bd 543d a778 d93b 853d 58bd
000002f0: 8763 9c3b 319c d33c 4f41 143b 0617 403c
00000300: ed75 193d eb83 abbd 589b d5bc 87e2 da3c
00000310: 0b7b cdbc ceac 443d 1b7f 83bd eba9 77bd
00000320: 2170 85bd 9047 d03c a97c 38bd a11d 03be
00000330: 6cc8 673d 431e 59bd a200 30bd fcb7 cb3c
00000340: b550 a13c e937 983d 9815 b6bc 7c4a a3bd
00000350: 0794 293d 81ab e03c c788 5c3c b227 033d
00000360: 4cb9 76bd ba27 9b3d b8da abbd 5ff7 df3c
00000370: 50e5 243b c956 833d 7daa e73c 1bd0 1ebd
00000380: d768 b8bd 44de 92bd baa8 36bd c60b 4e3c
00000390: 4d97 f3bc fc7b d33c 61cd 2a3d 53ae 4dbd
000003a0: 9521 173d be90 a83d 44d4 02bd dca9 f0bd
000003b0: b9b4 d53b 2c42 19bc 7ad8 efbd 31e1 7dbd
000003c0: 5f8c 7cbd 2ad8 6cbd ab50 b3bd adda 6fbd
000003d0: cc83 d2bd 49a2 2d3d 31f0 b0bc c989 913b
000003e0: d56a 953d 1003 83bc 2dfb 893d 4daa d9bd
000003f0: 7dc4 d7bd 2d21 01be c571 163d 4eeb 88bd
-0.07227938 -0.030251343 0.030293895 -0.022626646 -0.00052995194 -0.022952469 -0.01984361 0.002364216
-0.13005148 -0.054207545 0.013714104 -0.046687827 -0.021920035 0.072904035 0.008391058 -0.057504244
-0.078470945 -0.07671455 0.02521891 0.00974362 -0.021347515 -0.044099573 -0.057460036 0.09397398
-0.011668621 -0.09176607 0.01206568 -0.08715664 -0.044213798 -0.07322117 0.0007812234 0.075393684
-0.08958917 -0.030974198 -0.046365514 -0.028351007 -0.078846045 -0.07855505 0.015650582 -0.0029213615
-0.004448592 -0.048738297 -0.03702328 0.03050161 -0.07187973 -0.017113412 -0.063172534 -0.008857378
-0.06370006 -0.050322652 -0.03775286 0.04882861 -0.054901436 -0.0016878587 0.07035101 0.09472616
0.034052078 0.065806754 -0.113281175 -0.023343189 -0.0745225 0.017318215 0.059341338 -0.12893863
-0.085765876 -0.06335332 0.029590035 -0.055111036 -0.06463739 -0.09270742 -0.021683289 -0.091206186
0.04551909 -0.085827164 -0.027162962 0.030598858 -0.07242945 -0.017330667 0.024653422 -0.0151318135
0.050372407 0.016649755 0.013289037 -0.011709593 -0.10356712 -0.048495986 -0.031406246 -0.07543681
-0.04892936 0.024237104 0.007926621 -0.061587133 -0.028694393 0.08167282 -0.08756028 0.021006986
-0.08890313 0.046787016 0.06614016 -0.066521704 -0.072368875 -0.023276374 0.02586777 -0.08612672
0.054642852 0.06305861 -0.0006252529 -0.04218785 -0.11480212 -0.003821676 -0.015602725 -0.059134364
0.03717457 -0.018748976 0.0051427875 -0.015622519 -0.09568753 -0.043975536 0.011806243 0.052422665
-0.028642925 0.079608634 -0.05371439 -0.033321355 0.010423993 -0.1254017 0.040037233 -0.012575732
0.030595614 -0.029544031 0.023640892 0.01878562 -0.011485621 -0.017324017 -0.09084058 0.020819219
-0.026800264 0.043188047 0.042230733 0.054218553 -0.11157363 -0.0038672378 0.018079296 0.012431877
-0.1059688 0.051704906 -0.04225483 -0.04600258 -0.06089368 0.060701706 -0.047226377 -0.10843398
-0.11235137 -0.079737775 -0.14136416 0.029693931 0.00092387095 -0.071717985 0.05886823 0.06329122
-0.0636209 0.003704564 0.07980535 -0.07730491 -0.13277285 -0.018629199 -0.016420886 -0.045106426
-0.09478689 -0.0841036 -0.04893718 -0.038703054 -0.071091115 0.007279488 0.01114636 0.028858121
-0.024877913 -0.027302202 -0.05521435 0.024486866 0.015673356 0.020939413 0.04672935 -0.10649894
0.02303978 0.051938083 0.0066366973 -0.052793045 0.004772607 0.025831314 0.0022621935 0.011724239
0.03746598 -0.08374771 -0.02607505 0.026719345 -0.025083086 0.048016362 -0.06420728 -0.06046478
-0.065155275 0.025424749 -0.04504076 -0.12804271 0.05658762 -0.053007375 -0.042969353 0.024868004
0.019691804 0.07432539 -0.022227094 -0.07973191 0.041400936 0.02742553 0.013460345 0.03202028
-0.060235307 0.075759366 -0.08391327 0.027339635 0.0025161095 0.06413037 0.028279537 -0.038772684
-0.090043716 -0.071713 -0.044594504 0.012576049 -0.029735232 0.025815956 0.04169977 -0.050215077
0.03689726 0.082307324 -0.031940714 -0.11751148 0.006521788 -0.0093541555 -0.117112115 -0.061982337
-0.061657306 -0.057823338 -0.087556206 -0.058558155 -0.102790445 0.042391095 -0.021598907 0.004441474
0.07295767 -0.015992671 0.06737361 -0.106281854 -0.10535524 -0.12610312 0.036729593 -0.06685506

fc3.bias f4 [128]
00000000: be97 f7bd 7436 e2bd 225a 93bd 832f e03f
00000010: 6ac8 d9bd a79e dc3b 7909 3e3f e459 863f
00000020: 9153 a73f ecc4 b53e 656a 70bd 8efd 513f
00000030: 580f b4be e411 20bf 11d7 b83f 082b 4f3f
00000040: 07c5 bcbe 09c0 ccbd 570d b73f 13bc a93f
00000050: 515a bbbe f7a7 4a3f e7ec 203f 2ca4 b53f
00000060: 4877 b53f 834b 543f a273 bbbd 568b 663f
00000070: f406 aa3e 897e 01bf cc46 0c3d 3f57 a53f
00000080: fae4 acbd 9c07 df3f ee4a e3bd 910f 8a3e
00000090: 1542 b33b e888 a33f de47 6b3e d01b c73f
000000a0: b634 623d 8cda e23f 2989 343d a445 3bbf
000000b0: 6347 7abd 20f4 083d 945d 87be b401 eb3f
000000c0: d8a9 a7bd 4a96 b4bd 164b 0bbd c27b b8be
000000d0: ed56 48bf 467f b13f cbef 62bd f1c4 0bbf
000000e0: 14de b2bc d542 c7bd 45ff aebd 608c 453f
000000f0: b3a6 273e 5d72 b23f abfa 853f 93e6 103f
00000100: 3494 de3f 8672 36bd 0570 c03f 2d59 a6bd
00000110: 08f2 5c3f 213b 97be abad 843f 1ba0 c4bd
00000120: 5dc1 0b3e 1895 1d3f 2f2a 953f 2320 9bbd
00000130: 0882 ab3f d86e ba3c 53a8 cbbe eec8 f8bc
00000140: 9e18 e9bd 0ef2 02bd 6cbc ddbe 8697 12be
00000150: fb2c 8c3f 2d38 853e 9a82 79bd 57a8 283f
00000160: c1df 0bbf b477 9c3c a583 bd3d aba6 b33e
00000170: 4039 2e3f f88d d2bd 1434 2fbd 51d4 963f
00000180: 9b3b 643f 3620 29bf e0e9 90bc 02a4 e3bc
00000190: 68c7 21bd 54f7 d8be c1e7 863f bc5b ae3f
000001a0: bb88 50be 66cb e2bc 7b9e 09be 1932 6ebd
000001b0: c81c f93e 6cd9 acbe 641c 76bd 6922 babd
000001c0: faf4 233f 73d0 b5be cbda 303e a4ca 8b3f
000001d0: 37b4 963d ddde 9b3f 93d1 c6be 8878 5ebd
000001e0: 6b1a 80be 8372 00be 62b3 eabd c065 de3f
000001f0: 8f2a 5abe 3686 2a3e 6808 243f dc8d 66bd
-0.120894894 -0.11045542 -0.07194926 1.75145 -0.10633929 0.00673278 0.74233204 1.0496182
1.3072377 0.35501802 -0.058695216 0.8202752 -0.35167956 -0.625273 1.4440633 0.80925035
-0.3686907 -0.09997565 1.4300946 1.3260521 -0.36592343 0.79162544 0.62861484 1.4190726
1.4177027 0.8292772 -0.091529146 0.9005636 0.3320843 -0.505837 0.034247205 1.291725
-0.08442111 1.7424197 -0.11098276 0.26965 0.005470524 1.2776155 0.22976634 1.5555363
0.05522605 1.7722945 0.04407612 -0.7315314 -0.061103236 0.03343594 -0.26438582 1.8359895
-0.08186692 -0.08817728 -0.034007154 -0.3603192 -0.7825764 1.3866966 -0.055404466 -0.54597384
-0.02183441 -0.09729544 -0.085447825 0.7716732 0.16372184 1.3941151 1.0467123 0.5660183
1.7388978 -0.04454281 1.5034186 -0.08122478 0.8630681 -0.295373 1.0365499 -0.0960085
0.13647981 0.61555624 1.1653498 -0.07574489 1.3399057 0.022757933 -0.3977686 -0.030369248
-0.113816485 -0.031969123 -0.43307817 -0.14315614 1.0951227 0.2601942 -0.060915567 0.65881866
-0.54638296 0.019100048 0.09253625 0.35088095 0.68056107 -0.10280985 -0.042774275 1.1783544
0.8915345 -0.66064775 -0.017689645 -0.027788166 -0.03949681 -0.42376196 1.0539476 1.3621745
-0.20364659 -0.027684879 -0.13439362 -0.058153246 0.4865477 -0.3375963 -0.06008567 -0.090885945
0.6404568 -0.35510597 0.17270963 1.0921216 0.07358592 1.2177387 -0.38831767 -0.054314166
-0.25020155 -0.12543683 -0.11459996 1.7374802 -0.21305297 0.1665276 0.64075327 -0.05628763

fc4.weight f4 [4, 128]
00000000: 171e b0bd 7ccb 333c 8ceb d73c 8ff3 3c3f
00000010: be5f e23c df35 c03d d407 14bf 23cc c03c
00000020: 30f3 463f 6e02 7abc 8128 a73c 2a82 d8bf
00000030: 10bd 9d3f b8f4 ca3d 00c7 533f 952a 043f
00000040: 800d e9bf 30d4 863b 2669 dc3e 848f 3d3f
00000050: c4e6 5d3d c344 22bc c2c0 563e 753f b83f
00000060: 229f 113f ecc9 203f e9db 393c b2eb 163f
00000070: 2289 963f 9c41 c5be 61a4 a53d da95 de3e
00000080: 8538 0abc 55ab 1d3f cc51 a53d 4a53 cf3e
00000090: 1589 aebd fdc0 0d3f c268 9c3e b59a 483f
000000a0: 3b34 94bd 1cd3 2e3f 2d3d d73e f109 25bf
000000b0: 89e0 2f3d 64d0 413d a0b6 c43e 8be0 493f
000000c0: 4bfb de3e 955a e3b9 47c0 b5bb af13 473d
000000d0: ab1a 7fbd 6e3e 13be 2f2f 4b3b f9aa c93e
000000e0: f360 903d c604 1abd 8a9c 233d 315c 6e3e
000000f0: c003 b83e f0ef 223f edff 233e fbeb 773e
00000100: a00c 343f bb06 173d f7d6 5a3f 1bcf a03a
00000110: 8717 1abf 82e4 bbbb 37f6 b93e e485 c5bc
00000120: 835f 82bb 16b6 6d3e 94bc ab3e 91c7 573c
00000130: 6ae4 1d3f 23f7 893d edf4 f13e efde 503d
00000140: f217 6f3c 606f 333d fee4 e7be 9b3c 9dbb
00000150: 644c 9a3e 9bfe a93e bac9 43bd af6d 343e
00000160: d2f5 ab3c 693a 813d 2960 883f 913f d33e
00000170: 84b4 923f 1614 4ebc c560 0f3e 2778 e4bd
00000180: 6499 3f3b 2a6f d7be 87d7 133c 44e7 87bd
00000190: 5f50 e63c 6d13 4b3e 0aa5 ef3e d90a af3e
000001a0: 13ae cb3d fc10 fa3b 2dec 1fbd 40be a53d
000001b0: 7410 afbb 4454 eabe 4ec9 f4bc 2fa5 813d
000001c0: 1c00 e4bd 2f6b 48c0 3caa e83e 1c57 9c3f
000001d0: 1b03 0cbd a951 fb3a 4e4a 1a3e 15c6 3dbd
000001e0: c9c7 abbf 54c4 0d3d ef04 73bd 08cb 1f3f
000001f0: d447 0fbd f470 9bbb ee5a f8bc b054 3c3d
00000200: 5aff 05ba f9ec 5abd ee25 7dbd 14d7 8e3e
00000210: 615b 0dbb e08c 1bbc 91dc 5fbe b449 b7bd
00000220: 71a4 2f3f c144 72bd 2e3f b63d e8ff 9a3f
00000230: 7f60 243f 9b0b 0dbd bdd1 8abf e7f2 5d3f
00000240: 32d2 103e 4005 283d 2af5 663f c1d8 463f
00000250: c548 4cbd c411 d2bc 3ffb 3c3f 299d d3bd
00000260: 85f4 a33f e273 de3e 6e41 b23d feb6 e43e
00000270: 9b09 6cbf 7a14 593d 2035 143d 649a f13e
00000280: c5d9 8dbd 829b 053f 742d cd3e d1c7 f63e
00000290: dfb2 b63b 9e35 6f3e 9cc3 08bf f9d6 cf3e
000002a0: 07e3 e73a 1c9b 6f3e 1ffa 263e 3fd5 08bf
000002b0: e4fd bdbc e5cd 83bd feda 003d afee b33e
000002c0: e508 4bbe 4932 a03c 8e29 74bd befc 85bf
000002d0: 6578 f0bc 3880 b73d b0eb 9f3c b7ec 5a3e
000002e0: 44f7 0cbb da13 05bd a403 543c 10be e43d
000002f0: daca c23c 2c71 473f eb25 b53e 12a8 7f3f
00000300: 9ab0 ba3f fe83 66bd 5f0f 433f f08c c9bb
00000310: 2106 efbc 2787 3f3d f6a6 3d3e 5ef1 2cbc
00000320: 9f89 c23e d596 013d 8de6 83bf 9634 86bd
00000330: 4194 38bf 8724 043c bcb6 96be c4c4 aa3c
00000340: 8cd9 3dbd 27c1 833d ebba 873c d24f 04bd
00000350: 9e4c e73e 21d5 e4bc 0787 88bd ceab 33be
00000360: ba6f a43e 73db 8a3d 24c8 c6bc e811 583f
00000370: 4e41 cfbf 4626 fc3b accf 693f 0dcb 913c
00000380: e420 513b 55a8 3fbf 0816 70bd 60df b53b
00000390: fc80 62bd 6dbf 843c 4693 8c3d 8174 cc3c
000003a0: 10e7 50bc 2713 353d 2dc3 b83e b54d dc3c
000003b0: aefd 55be e6d2 d8bc 640f 943d 5fd5 98bc
000003c0: 50de 1f3e a386 8c3b d3e4 27be 415f 2cc0
000003d0: d384 e73e 4f06 4b3f bfc7 bcbb 6bf0 6cbc
000003e0: 51ed 5c3e a7ae 5c3d 3365 d53b c48c 3c3e
000003f0: c400 49be ca6f cbbd f792 503d 2372 00bc
-0.08599489 0.010973807 0.026357435 0.7380914 0.027633544 0.09385275 -0.57824445 0.02353484
0.77714825 -0.015259368 0.020405056 -1.6914723 1.2323322 0.09909958 0.82725525 0.51627475
-1.8207245 0.00411465 0.43048972 0.7404711 0.054175153 -0.009904089 0.20971969 1.4394366
0.5688344 0.6280811 0.011343935 0.5895339 1.17606 -0.38526618 0.080879934 0.43473703
-0.008436327 0.61589557 0.08072242 0.40493232 -0.0852224 0.553726 0.30548674 0.78361064
-0.07236525 0.6829088 0.4203886 -0.64468294 0.042938743 0.047317877 0.38420582 0.7885825
0.43551096 -0.00043364303 -0.005546603 0.048602756 -0.062281292 -0.14379284 0.0031003465 0.39388254
0.070497416 -0.03760221 0.03994421 0.23277356 0.3594036 0.63647366 0.16015597 0.24211113
0.70331764 0.036871653 0.8548426 0.0012268753 -0.6019215 -0.0057340274 0.3632066 -0.024111696
-0.003978671 0.23213992 0.3354231 0.013170139 0.6167666 0.06736591 0.47257176 0.050993856
0.014593111 0.043807387 -0.45291895 -0.0047984845 0.30136406 0.3320206 -0.047799803 0.17619966
0.02099124 0.06309969 1.0654346 0.41259435 1.1461339 -0.012578031 0.14001758 -0.1115573
0.0029235715 -0.42077 0.009023554 -0.06635907 0.028114496 0.19831629 0.46805602 0.34187964
0.099453114 0.007631419 -0.039043594 0.08092928 -0.0053425375 -0.45767415 -0.029881146 0.063303344
-0.11132833 -3.131542 0.4544238 1.2214084 -0.03418265 0.0019174117 0.15067407 -0.046331484
-1.3420345 0.03461106 -0.059330877 0.62419176 -0.03498061 -0.0047436897 -0.030316796 0.0459792
-0.0005111598 -0.05344865 -0.06180375 0.27898467 -0.0021569359 -0.009494036 -0.21861483 -0.08949605
0.6861029 -0.0591476 0.08898769 1.2109346 0.6420974 -0.034434896 -1.0845257 0.86698765
0.14142683 0.04102063 0.9021784 0.7767449 -0.049874086 -0.025643237 0.7382087 -0.1033271
1.2808996 0.43447787 0.08703886 0.44670862 -0.92202157 0.052998044 0.036183476 0.47188103
-0.06926302 0.5219041 0.4007374 0.48199323 0.0055755223 0.23360297 -0.53423476 0.405937
0.0017691561 0.23399013 0.16306351 -0.5345039 -0.023192354 -0.06435756 0.031458847 0.3514304
-0.19827612 0.019555228 -0.059609942 -1.0467756 -0.029354284 0.08960003 0.019521564 0.21379362
-0.0021509686 -0.032489635 0.012940321 0.11169064 0.023778368 0.7790706 0.35380492 0.9986583
1.4585145 -0.05627822 0.7619533 -0.0061508343 -0.029177727 0.04675975 0.18520722 -0.010555593
0.37995622 0.031637985 -1.0304734 -0.06552999 -0.7210122 0.008065349 -0.2943629 0.020845778
-0.046350047 0.06433325 0.016568622 -0.032302685 0.45175642 -0.027933659 -0.066663794 -0.17546007
0.3211649 0.06780138 -0.024265356 0.8440232 -1.6191804 0.0076949922 0.9133251 0.017797017
0.0031910473 -0.7486623 -0.05861476 0.00555031 -0.05529879 0.01620456 0.06864028 0.024957897
-0.012750402 0.04420772 0.36086407 0.026892522 -0.20897552 -0.026467752 0.07229498 -0.01865643
0.15612149 0.004288511 -0.16395883 -2.6933138 0.45218524 0.793065 -0.0057611163 -0.014461617
0.21574904 0.0538775 0.006512308 0.18413073 -0.19629198 -0.099334314 0.050921407 -0.007839712

fc4.bias f4 [4]
00000000: 06d3 1c40 c6a9 f03f 7cf4 0640 82bc 0940
2.4503798 1.8801811 2.1086721 2.1521306
