model_episode_500000.pth (torch, 144003 bytes, 8 tensors)

fc1.weight f4 [128, 11]
0.41749278 0.5537451 0.90224403 -0.014269197 0.33744305 -1.2677883 -0.020705452 -1.2648653
0.4046731 -0.0036691085 0.06270918 -0.22482753 -0.16210862 0.50238883 0.3266397 -0.5215094
0.15994105 0.6910597 0.2831735 -0.03472764 -0.9374992 -0.49622506 0.25091502 -0.33081478
0.0021058863 0.96652645 0.80869365 0.45844218 1.0008414 -0.80981344 -1.4038142 -0.14057119
0.039311714 0.08691345 0.029596537 0.92552936 -0.8171329 -1.2138828 -0.10787228 0.01119549
-0.6796956 -0.35966676 -0.35159308 -0.39007756 1.1120354 -0.09523053 0.83520174 0.47302237
-1.0669338 -0.69973147 0.56214505 0.573264 0.3381647 0.090017945 -0.24888593 1.4886763
-0.06802615 0.0030281965 0.21964955 -1.8692214 -0.77601486 0.083235465 -0.04475429 0.2734509
0.33121902 0.099055104 0.6176066 -1.2252841 0.85808015 -1.615805 0.42665836 0.36435083
-0.28962 -0.3468029 -0.5313597 0.00033246193 -0.07656266 0.5432465 0.820551 0.18470535
0.39488876 0.445426 0.12497547 -0.8037168 0.35855442 -0.59598243 0.27248028 -0.5278969
0.14396697 0.291046 -0.51930165 0.95366025 0.07066634 -0.789905 0.1951689 0.38532376
-0.06470396 -0.14456026 -0.34414008 0.1537273 -0.12558648 -0.05862564 0.7283191 -0.19558634
0.51594955 0.70388174 -0.5973237 0.17419931 0.024489367 0.3722923 0.75619656 0.48352674
-0.69097155 0.44816047 -0.04305809 0.9073514 -0.14771816 -0.57159644 -0.23146196 0.56826526
-0.036857557 0.8442568 0.43324304 -1.5736008 -0.25021112 -1.2808061 0.7223183 -0.78473246
-0.051747292 -0.031148776 0.19491436 0.22615674 0.34458458 -0.01881772 -0.2986443 -0.05951986
-0.1266211 -0.09529158 -0.5156688 -0.37291905 -0.5489216 -0.2714979 -0.41321895 0.46599305
-0.14307666 -0.23755795 0.8484891 0.7187727 -0.1802974 0.1577246 -0.30917332 -0.04903074
-0.5930224 -1.1755221 -0.55170864 -1.2419314 0.672783 1.0800171 -0.6719727 0.654849
-1.0665001 -0.07054601 0.06557917 -0.21730685 -0.37612602 -0.8696982 1.3794297 0.5678473
0.30069083 0.87913007 -1.2195467 -1.3872536 -0.3222965 -0.3103234 -0.51135683 -0.5765403
-0.15008153 -0.94649017 0.2579688 -0.43695837 0.24979983 0.12394126 -0.45274696 -0.41446456
-0.5914003 -0.34266305 -0.5609873 1.304156 -0.50473714 0.4275585 0.30621567 -0.82667315
1.1066358 -0.43084377 0.085084245 -0.1262574 0.10852144 0.42776275 -0.36806187 -0.4367662
-0.38860235 0.64018524 0.48354146 0.736436 0.7479476 -0.30044553 0.14686275 0.29756415
0.2397295 0.486374 -0.5130522 -0.044970546 0.7147881 -0.18004619 0.15749854 -0.14499655
0.4572785 -0.50780386 -1.0504382 -1.3512045 -0.058545813 0.51836854 -0.34055322 -1.1381199
0.5557178 0.18538453 0.4793816 0.17488757 -0.6271667 -0.25752264 -0.012419223 -0.29998562
-0.38422188 -0.26377356 0.09874141 0.59094214 0.77675056 0.3618386 0.4268448 0.08461999
0.21994275 0.0950819 -1.5075754 0.514522 0.45071116 0.7155313 0.3212445 -0.0054256567
-0.8539121 -0.21702954 -0.22896935 -0.1972566 0.09744733 -0.23411791 -0.29344642 0.48897663
00000000: 9dc1 d53e 3dc2 0d3f 77f9 663f 5ac9 69bc
00000010: 56c5 ac3e e346 a2bf 7b9e a9bc 1be7 a1bf
00000020: 5031 cf3e 6d75 70bb ac6d 803d 3039 66be
00000030: cdff 25be 8e9c 003f 523d a73e a481 05bf
00000040: 96c7 233e 4ae9 303f 1efc 903e 923e 0ebd
00000050: f3ff 6fbf 3611 febe ef77 803e 8e60 a9be
00000060: e902 0a3b 476e 773f 8c06 4f3f efb8 ea3e
00000070: 921b 803f ef4f 4fbf 2fb0 b3bf e5f1 0fbe
00000080: 5205 213d aeff b13d 7074 f23c 7eef 6c3f
00000090: 9f2f 51bf 8360 9bbf 24ec dcbd 4a6d 373c
000000a0: 8800 2ebf 3e26 b8be 0204 b4be 3fb8 c7be
000000b0: 2d57 8e3f 3908 c3bd c8cf 553f fd2f f23e
000000c0: 4991 88bf 9a21 33bf bde8 0f3f 6ec1 123f
000000d0: ec23 ad3e 545b b83d f4db 7ebe f28c be3f
000000e0: 4b51 8bbd b574 463b d0eb 603e a642 efbf
000000f0: e9a8 46bf 5b77 aa3d 4650 37bd c201 8c3e
00000100: 8a95 a93e 67dd ca3d 771b 1e3f 1cd6 9cbf
00000110: 24ab 5b3f b3d2 cebf f772 da3e 318c ba3e
00000120: 1349 94be 2690 b1be 3007 08bf 494e ae39
00000130: e2cc 9cbd 3412 0b3f a10f 523f 6623 3d3e
00000140: dc2e ca3e e00e e43e 24f3 ff3d 62c0 4dbf
00000150: 7294 b73e 4e92 18bf 8982 8b3e 4024 07bf
00000160: 146c 133e fb03 953e f4f0 04bf 1423 743f
00000170: 84b9 903d 3737 4abf 5bda 473e 2849 c53e
00000180: 8383 84bd 9b07 14be 2133 b0be b06a 1d3e
00000190: be99 00be 7021 70bd 1f73 3a3f c947 48be
000001a0: 4515 043f 9831 343f 35ea 18bf 4e61 323e
000001b0: ed9d c83c 199d be3e 1996 413f d190 f73e
000001c0: 83e3 30bf 4a75 e53e ae5d 30bd 2e48 683f
000001d0: 6e43 17be 2554 12bf 5d04 6dbe d579 113f
000001e0: f3f7 16bd 3721 583f 08d2 dd3e c06b c9bf
000001f0: ac1b 80be 74f1 a3bf dae9 383f 3ae4 48bf
00000200: f8f4 53bd b82b ffbc a197 473e a295 673e
00000210: 646d b03e 9e27 9abc e8e7 98be 19cb 73bd
00000220: f6a8 01be 3b28 c3bd df02 04bf 3fef bebe
00000230: 2086 0cbf c601 8bbe 6f91 d3be a496 ee3e
00000240: b082 12be 6442 73be 9536 593f 7d01 383f
00000250: e29f 38be 8f82 213e f74b 9ebe 75d4 48bd
00000260: 51d0 17bf 8277 96bf c73c 0dbf 9cf7 9ebf
00000270: 823b 2c3f 003e 8a3f 6706 2cbf 2fa4 273f
00000280: 1383 88bf 6d7a 90bd 5f4e 863d b085 5ebe
00000290: 9793 c0be 8ba4 5ebf 2791 b03f 715e 113f
000002a0: 26f4 993e ab0e 613f 1b1a 9cbf 8791 b1bf
000002b0: 0c04 a5be b5e2 9ebe 48e8 02bf 2598 13bf
000002c0: f9ae 19be 2e4d 72bf 7d14 843e 02b9 dfbe
000002d0: 87cb 7f3e ead4 fd3d 73ce e7be b334 d4be
000002e0: 0366 17bf 8871 afbe dd9c 0fbf 95ee a63f
000002f0: 7436 01bf f3e8 da3e 4dc8 9c3e daa0 53bf
00000300: 3ea6 8d3f 8e97 dcbe a640 ae3d 9f49 01be
00000310: 7d40 de3d b803 db3e 9b72 bcbe d29f dfbe
00000320: e3f6 c6be 2ee3 233f bf92 f73e 1287 3c3f
00000330: 7e79 3f3f ffd3 99be 3063 163e 545a 983e
00000340: a67b 753e 0306 f93e 6457 03bf 0933 38bd
00000350: 5afc 363f 075e 38be 4c47 213e fa79 14be
00000360: 6820 ea3e 6fff 01bf c274 86bf 45f4 acbf
00000370: bccd 6fbd cdb3 043f fe5c aebe eaad 91bf
00000380: 8643 0e3f 71d5 3d3e 8171 f53e ba15 333e
00000390: ff8d 20bf 02da 83be ff79 4bbc b797 99be
000003a0: bbb8 c4be 540d 87be f038 ca3d fc47 173f
000003b0: 20d9 463f e942 b93e 678b da3e 3f4d ad3d
000003c0: ac38 613e 4dba c23d 3bf8 c0bf b7b7 033f
000003d0: 9dc3 e63e 0f2d 373f 297a a43e b5c9 b1bb
000003e0: fc99 5abf fe3c 5ebe f176 6abe a2fd 49be
000003f0: 7792 c73d 9bbc 6fbe 9c3e 96be 255b fa3e

fc1.bias f4 [128]
-1.0720466 -0.7407141 0.041359 -0.70496285 -0.9014181 -0.85307515 -0.11744063 -0.6590348
-0.23385149 0.12754226 -0.46523649 -0.4872598 -0.052477464 -0.2703893 -0.22750801 -0.12240614
-0.21554802 -0.8687942 0.8334301 -0.30328703 -0.5344891 0.7301103 0.0195646 -0.76804334
-0.7297783 0.3090343 -0.12215183 -0.31969595 -0.6235703 -0.5336222 -0.2642707 -0.7600188
-0.12424922 -0.9213514 -0.16145188 -0.5427485 0.8236799 -0.27448294 -0.4193294 -1.0441949
-0.39232382 0.050255265 -0.9660023 -0.4754055 0.5866725 -0.03606188 -0.17010912 0.17994057
-0.95415634 -0.36247566 -0.9705733 0.04708242 0.6020578 0.4770323 -0.5013587 -0.4955614
-0.9828131 -0.464328 -0.6427304 0.37913322 -0.8565019 0.060700815 -0.08098075 0.26147225
0.7912389 -0.06947558 -0.0490225 0.029376248 0.09523142 -0.69601053 -0.39506522 -0.7729269
-0.94649535 -0.95202625 0.29212955 -0.24731277 -0.96095616 -0.9431514 -0.3579328 -0.7740343
-0.508551 -0.32841754 -0.77533627 0.3697333 -0.3705555 -0.29367834 -0.8095687 0.31930703
-0.74834406 0.84603375 -0.6019592 0.17158346 0.32420895 -0.8377325 0.4891024 0.6957703
0.36027128 0.6776785 -0.8181144 -0.08883429 -0.34126225 -0.45786792 -1.3853542 -0.30394328
-0.4626388 0.71072435 -0.26682544 0.465139 -0.09720567 0.76280093 -0.4982265 -0.15824887
-0.23580667 0.5725173 0.7735973 -0.37987188 -0.4434719 -0.48612142 0.42369494 -0.6446112
0.7173198 -0.5781521 -0.57283604 0.5691015 -0.47730795 -0.7669438 -0.1282176 -0.68425894
00000000: d338 89bf 709f 3dbf 0e68 293d 7278 34bf
00000010: 56c3 66bf 2263 5abf b784 f0bd 81b6 28bf
00000020: c476 6fbe 709a 023e 7a33 eebe 1e7a f9be
00000030: 9cf2 56bd 7770 8abe dcf7 68be 12b0 fabd
00000040: 9fb8 5cbe 4c69 5ebf ad5b 553f 7048 9bbe
00000050: 47d4 08bf 82e8 3a3f f145 a03c 7d9e 44bf
00000060: c0d2 3abf be39 9e3e bd2a fabd 30af a3be
00000070: 4ea2 1fbf 779b 08bf 7d4e 87be 9890 42bf
00000080: 6076 febd afdd 6bbf a453 25be 91f1 0abf
00000090: b0dc 523f 0789 8cbe 58b2 d6be 2ea8 85bf
000000a0: abde c8be 77d8 4d3d ed4b 77bf 5a68 f3be
000000b0: 2b30 163f 9fb5 13bd 1631 2ebe 5742 383e
000000c0: 9743 74bf 6996 b9be 7e77 78bf 7fd9 403d
000000d0: 7620 1a3f 943d f43e 0b59 00bf 39ba fdbe
000000e0: a499 7bbf 66bc edbe fb89 24bf c01d c23e
000000f0: b543 5bbf 6ba1 783d 3cd9 a5bd b1df 853e
00000100: a28e 4a3f 3649 8ebd d1cb 48bd 75a6 f03c
00000110: b108 c33d bf2d 32bf fd45 cabe 8ade 45bf
00000120: 854d 72bf feb7 73bf 0192 953e 8f3f 7dbe
00000130: 3901 76bf 5f72 71bf f842 b7be 1d27 46bf
00000140: 6630 02bf 5826 a8be 707c 46bf af4d bd3e
00000150: 73b9 bdbe 025d 96be e53f 4fbf 367c a33e
00000160: 7a93 3fbf ab95 583f 001a 1abf 93b3 2f3e
00000170: b7fe a53e a375 56bf a16b fa3e 011e 323f
00000180: 7a75 b83e 577c 2d3f f26f 51bf c1ee b5bd
00000190: edb9 aebe aa6d eabe 4953 b1bf 749e 9bbe
000001a0: fede ecbe 08f2 353f 589d 88be b326 ee3e
000001b0: c413 c7bd ec46 433f 8b17 ffbe fe0b 22be
000001c0: 4e77 71be 7e90 123f 790a 463f 917e c2be
000001d0: c00e e3be e8e4 f8be 8bee d83e 3d05 25bf
000001e0: 45a2 373f c701 14bf 62a5 12bf a3b0 113f
000001f0: b561 f4be 6e56 44bf 794b 03be 982b 2fbf

fc2.weight f4 [128, 128]
0.34401888 -0.84373045 0.5784223 -0.92308074 -0.36433586 -0.03376785 0.63745075 -0.23656254
0.014670047 -0.086439416 -0.07423349 -0.6263468 -0.033889726 -0.05798765 -0.36569142 0.11549397
0.55579144 1.4264157 0.07276266 0.33520356 -0.29812276 0.042098153 -0.17498875 0.44670463
-0.4083133 0.16583596 0.1506197 0.6601837 -0.15779042 1.5552222 -0.117988646 -0.03441563
-0.49991095 1.030179 -0.22059177 -0.26676896 0.056408487 -1.3487238 1.4906844 0.41446683
-0.26643428 1.1667389 -0.8622187 -0.9011616 -0.2668093 -0.47149894 0.1777522 -0.9394783
0.08058135 0.13824776 -0.587246 -0.4542396 -0.12927978 -0.32549915 -0.8884581 -0.68684614
0.20241053 0.53029525 -0.34583327 0.05126855 -1.4186466 0.2527933 0.23517954 0.37604886
0.20383611 -0.059409235 0.18887016 0.3665352 0.95230895 -1.1773766 0.39518866 -0.24932809
0.016115703 -0.14065531 -0.09358259 -0.60564065 -0.20485415 -0.006863568 0.5412591 -0.2063523
-0.006934624 -0.1284426 0.1863524 -0.3490296 -0.4703978 0.01825734 -0.5501111 -0.19765499
0.36584285 0.16567594 -0.8502455 0.25416216 0.15872468 -0.035572346 -0.18467605 0.107734285
-0.55162776 0.13737312 -0.43056232 -0.18269496 -0.13572927 0.009385561 0.04632289 0.4433163
0.12051614 0.22232075 -0.045494586 -0.21863559 0.48155037 0.33703342 -0.14287055 0.50123245
0.39528778 -0.35392338 -0.03276082 0.2558606 1.198927 -0.05900966 -0.14602883 0.36369044
-0.045842044 0.13436848 -0.30236146 -0.052854743 -0.58260036 -0.2394731 -0.19503714 -0.10382768
0.36877096 -0.7231177 -0.16021411 0.019252935 0.04553388 0.26132998 0.24323633 -0.5315776
-0.43245623 -0.5597639 -0.7101983 -1.0367517 0.009419511 -0.0038242892 -0.017702818 0.12224113
0.0896548 -0.18427514 -0.87081665 -0.45919487 -0.11323933 -0.7789692 -1.1377599 -0.033681206
-0.71571916 -1.2279027 -0.14496322 -0.16137603 -0.21316357 0.73879534 -0.36058116 0.15599956
-0.4229278 -0.55787224 -0.6119076 0.7769836 -0.989983 -0.4053541 0.17803511 0.58642447
0.012897562 -0.07017344 -0.7312237 -0.52426845 -0.9640897 -0.47989702 -0.6895748 0.32189566
0.48888466 -0.04117295 -0.45220545 0.698957 -0.2518878 -0.41430432 0.41970932 -0.9614329
-0.6684456 -0.4182578 0.14569062 0.3059286 -0.29888088 -0.88909495 0.146942 -0.5368197
-0.6148201 -0.7108866 -0.5940585 -0.8599776 -0.25061727 -0.28423214 -0.16004124 -0.4681098
0.524308 -0.613014 -0.50465983 -1.1045942 -0.36293736 -1.148631 0.51361674 -0.17042486
0.1559181 0.0490104 -0.809615 -0.7241554 -0.11438791 0.012042925 0.07221554 -0.7512825
-0.67338735 -0.8129616 -0.016400026 -0.63100153 -0.4229988 0.10313715 -0.13125408 -0.07758543
-0.89321035 -0.8907598 0.12998885 -0.28083256 -0.7460958 0.6392898 -0.74348664 0.04981149
-0.37936994 -0.06906354 -0.42860198 -0.1580187 -0.33063117 -0.7045095 -0.56506985 -0.10224508
-0.20445724 -0.24743003 -0.9052035 -0.9940644 0.110462725 -0.530584 -0.33986717 -0.18420295
0.05037978 -0.7767326 0.25464636 -0.37540576 -0.2543773 0.13833559 -0.53480196 0.41595948
00000000: 3e23 b03e b8fe 57bf 7c13 143f 054f 6cbf
00000010: 3b8a babe 2850 0abd f92f 233f 733d 72be
00000020: a35a 703c 2607 b1bd ba07 98bd 4458 20bf
00000030: f4cf 0abd 7584 6dbd e83b bbbe 1a88 ec3d
00000040: 5948 0e3f ca94 b63f 9704 953d cd9f ab3e
00000050: 8ca3 98be 1d6f 2c3d 4030 33be 78b6 e43e
00000060: 710e d1be e7d0 293e 0d3c 1a3e cd01 293f
00000070: d093 21be 8511 c73f 08a4 f1bd 67f7 0cbd
00000080: 54f4 ffbe e8dc 833f cfe2 61be f195 88be
00000090: 960c 673d fba2 acbf bfce be3f ff34 d43e
000000a0: 136a 88be b357 953f 5dba 5cbf 87b2 66bf
000000b0: 3b9b 88be 4f68 f1be ac04 363e a681 70bf
000000c0: d607 a53d d290 0d3e c155 16bf 1892 e8be
000000d0: eb61 04be d3a7 a6be fd71 63bf 26d5 2fbf
000000e0: b544 4f3e 6ec1 073f 0f11 b1be f9fe 513d
000000f0: 3696 b5bf 206e 813e e8d2 703e 7a89 c03e
00000100: 6aba 503e 1957 73bd 2e67 413e 80aa bb3e
00000110: 85ca 733f 47b4 96bf 2b56 ca3e dd4f 7fbe
00000120: 1405 843c f207 10be 3ba8 bfbd 440b 1bbf
00000130: 49c5 51be c8e7 e0bb f58f 0a3f 044e 53be
00000140: d83b e3bb 7586 03be 2ad3 3e3e 02b4 b2be
00000150: fbd7 f0be 6b90 953c 15d4 0cbf 1266 4abe
00000160: c14f bb3e f4a6 293e b0a9 59bf 8b21 823e
00000170: b988 223e 4fb4 11bd b81b 3dbe cba3 dc3d
00000180: 7a37 0dbf 8aab 0c3e aa72 dcbe 6314 3bbe
00000190: 9dfc 0abe e5c5 193c 12bd 3d3d 5bfa e23e
000001a0: 2ad1 f63d 0da8 633e 8858 3abd 02e2 5fbe
000001b0: c58d f63e a58f ac3e a84c 12be c550 003f
000001c0: 2963 ca3e 7235 b5be 3630 06bd 2900 833e
000001d0: 7176 993f 1db4 71bd 9588 15be a235 ba3e
000001e0: dec4 3bbd e497 093e 1fcf 9abe 377e 58bd
000001f0: 4c25 15bf 7038 75be d1b7 47be 9ba3 d4bd
00000200: 8ccf bc3e 3e1e 39bf 2b0f 24be 55b8 9d3c
00000210: bc81 3a3d 0bcd 853e f212 793e 7815 08bf
00000220: e76a ddbe b04c 0fbf 8ecf 35bf 48b4 84bf
00000230: 4b54 1a3c eda0 7abb 8005 91bc 8f59 fa3d
00000240: f09c b73d 9fb2 3cbe d7ed 5ebf 971b ebbe
00000250: 06ea e7bd 876a 47bf 1ea2 91bf 4ef5 09bd
00000260: 5f39 37bf ea2b 9dbf 3d71 14be c23f 25be
00000270: 8d47 5abe b121 3d3f 189e b8be 59be 1f3e
00000280: fe89 d8be b7d0 0ebf faa5 1cbf 66e8 463f
00000290: 876f 7dbf 938a cfbe d64e 363e ea1f 163f
000002a0: 4c50 533c 18b7 8fbd 7a31 3bbf 7536 06bf
000002b0: 95ce 76bf 10b5 f5be f987 30bf 82cf a43e
000002c0: 174f fa3e f8a4 28bd 7987 e7be d9ee 323f
000002d0: 70f7 80be b21f d4be 24e4 d63e 7720 76bf
000002e0: 401f 2bbf e325 d6be ec2f 153e aca2 9c3e
000002f0: ea06 99be ba9b 63bf f777 163e 046d 09bf
00000300: da64 1dbf aafc 35bf 3814 18bf 7e27 5cbf
00000310: e850 80be e086 91be dae1 23be 16ac efbe
00000320: 0d39 063f 7cee 1cbf 6331 01bf 5863 8dbf
00000330: edd2 b9be 5706 93bf 637c 033f db83 2ebe
00000340: ffa8 1f3e 21bf 483d ee42 4fbf 4062 39bf
00000350: 3544 eabd b04f 453c bee5 933d 0d54 40bf
00000360: 1d63 2cbf 401e 50bf 5959 86bc 5189 21bf
00000370: 4c93 d8be 9239 d33d 7867 06be 1ce5 9ebd
00000380: 6fa9 64bf d608 64bf cc1b 053e 49c9 8fbe
00000390: 2200 3fbf 7fa8 233f 2455 3ebf 2207 4c3d
000003a0: c73c c2be 2f71 8dbd b871 dbbe a7cf 21be
000003b0: 7d48 a9be bc5a 34bf 6ba8 10bf de65 d1bd
000003c0: 3d5d 51be 4c5e 7dbe 6bbb 67bf 017b 7ebf
000003d0: 483a e23d 5ad4 07bf 1203 aebe b39f 3cbe
000003e0: 075b 4e3d f3d7 46bf 0261 823e 2f35 c0be
000003f0: be3d 82be d8a7 0d3e c8e8 08bf a4f8 d43e

fc2.bias f4 [128]
0.6024816 -0.030021882 -0.08868866 -0.025421618 1.2320257 0.121863596 0.104576096 0.0047036675
0.21526563 0.21839769 0.32276368 1.0576441 -0.07899982 0.17608409 1.0090195 0.43055487
0.1247735 0.041043602 0.28096688 0.16678849 -0.12718381 -0.10160225 -0.018828215 0.5573193
0.94200224 0.7133254 0.9816503 0.09389368 0.14189179 -0.08218818 0.22419283 0.3666794
0.100534864 0.9841997 -0.12428042 0.20895573 0.20618321 0.9602471 0.07240044 0.7237876
0.9400846 0.017455453 0.5602705 0.38881278 0.99440825 -0.12474867 0.27128994 -0.11022767
0.62367517 1.0030787 -0.03236805 0.006981999 0.20873287 0.9765305 0.76775205 -0.011315771
0.26067448 0.21910441 0.16411768 0.22655015 -0.08241571 0.26015988 0.043730322 0.12421462
0.22203495 0.052467436 -0.080572814 0.9090852 0.59686416 0.15814495 0.21931043 0.57609844
0.048679773 0.9888864 0.09156048 1.1553054 -0.03586306 0.06517231 0.1583087 0.22773226
0.116402864 -0.23592606 0.5944374 -0.014518773 0.1359832 0.004700113 -0.080558434 -0.15173051
0.17862064 -0.13222064 0.022320338 1.1478812 0.27634582 0.9782989 0.32625732 0.21103203
0.027346138 1.1355562 -0.4227694 -0.103676096 -0.0027413398 -0.0706286 -0.10118388 0.67406434
-0.12228421 -0.29707983 0.20392261 0.13276462 -0.075258456 0.54476285 0.25504982 -0.32462808
-0.102211684 0.58664757 0.5311386 0.0066947564 0.24947117 0.355371 -0.15448503 0.4148403
0.4145615 0.15144095 0.25580296 0.16954228 0.41035867 0.9042521 0.08041033 0.6667541
00000000: 3c3c 1a3f 73f0 f5bc 66a2 b5bd ff40 d0bc
00000010: 05b3 9d3f 9f93 f93d fe2b d63d 3921 9a3b
00000020: 986e 5c3e a5a3 5f3e 4841 a53e e260 873f
00000030: a8ca a1bd 634f 343e 8d27 813f b071 dc3e
00000040: 4089 ff3d 561d 283d e4da 8f3e 9aca 2a3e
00000050: 793c 02be d714 d0bd a13d 9abc 7aac 0e3f
00000060: 0f27 713f 7e9c 363f 6f4d 7b3f 544b c03d
00000070: 154c 113e 4752 a8bd ce92 653e 67bd bb3e
00000080: 39e5 cd3d 83f4 7b3f bc86 febd 7ef8 553e
00000090: b121 533e c1d2 753f af46 943d 254a 393f
000000a0: 62a9 703f bdfe 8e3c e36d 0f3f 7812 c73e
000000b0: 8a91 7e3f 3b7c ffbd 84e6 8a3e 0bbf e1bd
000000c0: 2da9 1f3f e264 803f 5c94 04bd 41c9 e43b
000000d0: 12be 553e e7fd 793f 668b 443f c965 39bc
000000e0: 2077 853e e85c 603e 770e 283e c3fc 673e
000000f0: 91c9 a8bd ad33 853e 911e 333d 3c64 fe3d
00000100: 215d 633e 18e8 563d 5c03 a5bd cfb9 683f
00000110: 17cc 183f c0f0 213e ea92 603e 307b 133f
00000120: 7164 473d a927 7d3f 1084 bb3d 0ce1 933f
00000130: 25e5 12bd 0f79 853d ad1b 223e a532 693e
00000140: a064 ee3d 9a96 71be 0d2d 183f 26e0 6dbc
00000150: 2e3f 0b3e 6803 9a3b d2fb a4bd 3e5f 1bbe
00000160: 54e8 363e d964 07be 24d9 b63c c5ed 923f
00000170: 337d 8d3e cc71 7a3f 330b a73e c818 583e
00000180: 0205 e03c e859 913f 3b75 d8be 2254 d4bd
00000190: 0da8 33bb baa5 90bd 7e39 cfbd 7b8f 2c3f
000001a0: 2570 fabd d91a 98be 17d1 503e 73f3 073e
000001b0: 1b21 9abd 9475 0b3f e495 823e a735 a6be
000001c0: 5c54 d1bd 892e 163f b3f8 073f b05f db3b
000001d0: 5f75 7f3e 30f3 b53e 5331 1ebe f365 d43e
000001e0: 6841 d43e 5613 1b3e 9bf8 823e 7e9c 2d3e
000001f0: 881a d23e 117d 673f 2cae a43d 66b0 2a3f

fc3.weight f4 [128, 128]
-0.03579746 -0.43089372 0.043338183 -0.3113104 0.39046928 -0.6296796 -0.26850864 0.017730406
-0.2749496 0.4443157 -0.029750638 -0.02320588 -0.041869078 -0.22665988 -0.14583088 -0.20315729
-0.1905144 -0.07436275 -0.2727279 -0.7261415 -0.27490383 -0.04356876 -0.14900221 -0.0045070522
-0.1526256 -0.12827902 -0.017014738 -0.08979745 0.4694808 -0.011236545 -0.42681855 -0.47211954
-0.07419747 -0.05654453 0.016986534 0.39257646 -0.055999253 -0.16342472 -0.14762063 -0.46827537
-0.07788265 0.05833859 0.17801464 -0.23723713 0.023905084 -0.0267792 -0.26808274 -0.07009804
-0.7082406 -0.06255434 -0.07360452 -0.9240363 -0.17095602 0.0027577244 -0.6312348 -0.008811954
-0.34808186 0.22345908 0.50487524 0.5577107 -0.019060986 -0.04058246 -0.36739182 -0.34234443
-0.082725495 -0.44298178 -0.09886351 -0.00018099353 -0.058481097 -0.5865045 0.14068706 -0.3625237
-0.65468377 -0.1406858 -0.19321367 0.054777365 -0.18579733 0.24608168 -0.46300957 -0.105097674
-0.10866016 -0.2628758 0.082403935 -0.5313616 -0.102377035 -0.11171448 0.009896994 0.0065888898
-0.23620012 0.24972647 -0.015606651 0.040024243 -0.3520689 -0.07553014 -0.5655435 -0.059419516
0.20638491 -0.007866131 -0.5591789 0.027287407 0.2548104 0.048573017 -0.015678624 -0.35637552
-0.43342334 -0.6641293 -0.57610005 -0.527947 -0.02056974 -0.28689113 1.1643108 0.42377776
-0.06344479 -0.9012892 -0.42930782 0.34946883 -0.32691365 -0.10984093 -0.44784987 0.72362524
-0.092910595 -0.3187608 -0.21340707 -0.17260583 -0.009234517 -0.10342898 -0.48558506 -0.15259597
0.08127122 1.0908475 -0.049292497 1.7096244 -0.38703924 -0.26145014 -0.20188865 0.04162308
-0.5925248 -0.33047593 -0.56453764 0.01632129 -0.076811545 -0.32162943 -0.24007285 -0.44368345
-0.42611042 -0.4555884 -0.31501263 -0.46308386 -0.51450443 -0.049604278 0.10636802 -0.17414492
-0.26691267 -0.28599063 -0.18620011 -0.26735243 -0.15577815 -0.069013864 0.090635434 0.17562898
0.7314537 -0.6270934 0.025933672 1.5278674 -0.26777494 -0.7591143 0.111064255 -0.46334553
-0.43902764 0.0727906 0.42861775 -0.27551544 -0.1319227 0.13868752 0.13710207 0.031719908
0.05686314 -0.12890932 0.028485917 -0.07463165 0.06988037 -0.49075496 0.109708056 1.7042658
0.1500486 0.5259551 -0.56141436 0.14008212 -0.015989132 0.0052991733 -0.21949129 -0.36315426
-0.4323254 0.8560827 -0.08081954 -0.122804895 -0.48419112 -0.46900022 -0.16486093 -0.053538147
-0.60117686 -0.62004167 0.0014163875 -0.111868374 -0.7099829 -0.009279738 1.015226 -0.5918517
0.046997696 0.0021570586 -0.27914515 1.047086 -0.15940581 0.009733994 0.011169968 0.030100763
-0.016429394 -0.5142609 0.059921138 -0.22679046 -0.32556057 -0.23402059 0.013190893 -0.3732548
-0.44525442 -0.467767 -0.24394363 -0.076387376 -0.19246927 0.08750626 0.063099645 -0.41027957
0.41122127 -0.28224266 0.33838382 -0.36938804 0.08687955 -0.33825338 0.114429995 -0.18839224
0.0033480192 -0.49012244 -0.3816104 0.047850836 -0.30226472 -0.3215643 -0.21901298 -0.4009558
0.25978598 -0.29330277 -0.30398563 -0.47051275 0.41000792 -0.48647982 0.5488268 -0.20043153
00000000: 5ba0 12bd 1a9e dcbe 6183 313d 1464 9fbe
00000010: 97eb c73e af32 21bf f779 89be 5b3f 913c
00000020: 32c6 8cbe 597d e33e 9cb7 f3bc 421a bebc
00000030: e97e 2bbd 8719 68be b154 15be 7708 50be
00000040: 3516 43be 7f4b 98bd fea2 8bbe 69e4 39bf
00000050: 32c0 8cbe 2875 32bd 0994 18be e5af 93bb
00000060: e349 1cbe 935b 03be 7e62 8bbc bae7 b7bd
00000070: ca5f f03e 7c19 38bc f687 dabe a7b9 f1be
00000080: d8f4 97bd 3d9b 67bd 5827 8b3c c8ff c83e
00000090: 795f 65bd cf58 27be dd29 17be cac1 efbe
000000a0: f080 9fbd 72f4 6e3d 7849 363e 4aee 72be
000000b0: 98d4 c33c 0e60 dbbc 2442 89be 908f 8fbd
000000c0: 424f 35bf 7d1c 80bd f7bd 96bd a58d 6cbf
000000d0: 180f 2fbe f0ba 343b 9b98 21bf 0460 10bc
000000e0: c937 b2be 75d2 643e 813f 013f 21c6 0e3f
000000f0: c925 9cbc cb39 26bd c81a bcbe c547 afbe
00000100: fc6b a9bd 82ce e2be f478 cabd 15c9 3db9
00000110: e089 6fbd 2925 16bf 4510 103e b59c b9be
00000120: 5b99 27bf f00f 10be ced9 45be 3b5e 603d
00000130: a841 3ebe d6fc 7b3e 970f edbe 733d d7bd
00000140: 3889 debd a897 86be 65c3 a83d 5007 08bf
00000150: 0dab d1bd 90ca e4bd 0027 223c 9de7 d73b
00000160: 72de 71be 4cb8 7f3e 0ab3 7fbc 76f0 233d
00000170: 6042 b4be 8caf 9abd 75c7 10bf e161 73bd
00000180: 9156 533e f2e0 00bc 5926 0fbf d789 df3c
00000190: 8276 823e 80f4 463d 7570 80bc da76 b6be
000001a0: aae9 ddbe 6104 2abf 4b7b 13bf 8927 07bf
000001b0: df81 a8bc 65e3 92be 2308 953f 66f9 d83e
000001c0: 58ef 81bd e4ba 66bf 3cce dbbe 94ed b23e
000001d0: 3a61 a7be 48f4 e0bd 944c e5be 813f 393f
000001e0: e947 bebd 9e34 a3be 6287 5abe 95bf 30be
000001f0: 5f4c 17bc 93d2 d3bd 9b9e f8be 1e42 1cbe
00000200: 8771 a63d e4a0 8b3f eee6 49bd f9d4 da3f
00000210: 022a c6be cbdc 85be e6bb 4ebe f67c 2a3d
00000220: b5af 17bf 2434 a9be 8a85 10bf 3ab4 853c
00000230: 5f4f 9dbd 9dac a4be a8d5 75be 7a2a e3be
00000240: 252b dabe e242 e9be 5649 a1be 5419 edbe
00000250: 90b6 03bf db2d 4bbd 7ad7 d93d 0c53 32be
00000260: c7a8 88be 5d6d 92be 3eab 3ebe 6be2 88be
00000270: 4f84 1fbe 2457 8dbd 129f b93d 15d8 333e
00000280: 8d40 3b3f 3189 20bf da72 d43c 2991 c33f
00000290: cc19 89be 5155 42bf a875 e33d a03b edbe
000002a0: 3bc8 e0be 3d13 953d c973 db3e 5c10 8dbe
000002b0: bf16 07be 1a04 0e3e 7c64 0c3e bcec 013d
000002c0: 53e9 683d ce00 04be 4c5b e93c 7ad8 98bd
000002d0: 701d 8f3d 3c44 fbbe 9eae e03d 6225 da3f
000002e0: 57a6 193e fea4 063f dab8 0fbf b071 0f3e
000002f0: a4fb 82bc b0a4 ad3b 53c2 60be 5bef b9be
00000300: c159 ddbe 3c28 5b3f b784 a5bd 2281 fbbd
00000310: e6e7 f7be cc20 f0be 4ed1 28be d14a 5bbd
00000320: bae6 19bf 0dbb 1ebf 14a6 b93a 3f1b e5bd
00000330: 70c1 35bf 0b0a 18bc edf2 813f 9883 17bf
00000340: a880 403d 705d 0d3b 1dec 8ebe ea06 863f
00000350: 473b 23be 547b 1f3c 3e02 373c e095 f63c
00000360: f096 86bc 9aa6 03bf de6f 753d c23b 68be
00000370: e0af a6be 18a3 6fbe 9e1e 583c 411b bfbe
00000380: 63f8 e3be 287f efbe 5ccc 79be fc70 9cbd
00000390: aa16 45be 7b36 b33d 633a 813d 2a10 d2be
000003a0: 988b d23e 1c82 90be a540 ad3e 6e20 bdbe
000003b0: e8ed b13d 8c2f adbe 465a ea3d e5e9 40be
000003c0: 716a 5b3b 54f1 fabe 7062 c3be 3dff 433d
000003d0: 71c2 9abe 13a4 a4be f044 60be 144a cdbe
000003e0: ab02 853e c82b 96be 01a4 9bbe 0ce7 f0be
000003f0: 8fec d13e e213 f9be ea7f 0c3f ec3d 4dbe

fc3.bias f4 [128]
0.7826547 0.17840295 0.8899827 -0.11806561 0.4464684 -0.13957822 1.2058444 -0.070678785
0.0378953 -0.12616922 1.6134838 0.8097009 0.5198561 1.6570094 -0.042456187 0.8382022
0.009527676 -0.08870673 -0.10587494 0.16795184 -0.16755943 1.2918446 1.7053717 1.5847459
0.43611944 1.7224532 0.7379 -0.059239134 0.04685203 0.008084095 1.7473907 0.82943267
-0.0111668 1.5698318 0.6336737 0.012000891 -0.072169214 -0.07242704 -0.14407627 1.7031336
0.48461518 1.5380882 0.6607252 -0.039800826 -0.03813208 1.6862528 0.42470387 -0.194757
0.30663362 1.3185786 -0.019658672 0.0077585033 -0.05912625 -0.12308662 1.6061244 0.15300933
0.22214074 1.8299108 0.27466494 1.7167264 0.6793212 -0.096717514 0.05303684 0.24354167
0.7475472 -0.10546156 0.677576 1.8121502 1.7383406 -0.12089274 -0.07236665 1.507374
0.056681603 0.7523787 0.7737708 -0.0011607386 -0.020497372 1.8195981 -0.088405915 -0.032765843
0.12496298 1.7407573 0.26448736 -0.08462706 1.6856726 1.8316846 1.6963896 0.6982033
0.7211649 0.16366819 -0.10736016 0.24088547 0.5668502 0.26755708 0.3538881 0.57747257
0.8380025 0.7353133 0.09628664 0.5490828 1.8402783 -0.1034771 0.6160568 1.8871766
1.7615229 0.8630086 0.19353418 0.36595008 1.6244236 1.898944 0.6765618 0.3954483
-0.10517931 -0.07486923 0.5374833 -0.18405108 1.0682331 0.5365086 -0.0026791962 -0.050914712
-0.103966124 0.7533861 -0.0037049605 -0.020870525 -0.11999104 0.26680765 1.7345117 0.7894294
00000000: 0f5c 483f 43af 363e e8d5 633f 62cc f1bd
00000010: 8297 e43e 98ed 0ebe 1c59 9a3f 0ac0 90bd
00000020: 1a38 1b3d 8132 01be a386 ce3f 8f48 4f3f
00000030: 4a15 053f e218 d43f 8ae6 2dbd 6b94 563f
00000040: f819 1c3c e0ab b5bd f6d4 d8bd 91fb 2b3e
00000050: b394 2bbe 2a5b a53f 9f49 da3f f4d8 ca3f
00000060: 0c4b df3e 5979 dc3f 04e7 3c3f bca4 72bd
00000070: eae7 3f3d 2773 043c 80aa df3f b355 543f
00000080: f4f4 36bc 40f0 c83f 7138 223f 639f 443c
00000090: 74cd 93bd a154 94bd bb88 13be 4800 da3f
000000a0: 7b1f f83e 13e0 c43f 4925 293f 3106 23bd
000000b0: 6230 1cbd 22d7 d73f c972 d93e 616e 47be
000000c0: 15ff 9c3e 2fc7 a83f 390b a1bc 0b3b fe3b
000000d0: 5e2e 72bd d614 fcbd 7c95 cd3f 7aae 1c3e
000000e0: dd78 633e 843a ea3f e2a0 8c3e b1bd db3f
000000f0: ffe7 2d3f d513 c6bd 283d 593d fd62 793e
00000100: 415f 3f3f 3bfc d7bd 9f75 2d3f 8af4 e73f
00000110: f281 de3f 9d96 f7bd f734 94bd a2f1 c03f
00000120: f82a 683d e49b 403f d815 463f ed23 98ba
00000130: 1bea a7bc 97e8 e83f 290e b5bd 7a35 06bd
00000140: 97ec ff3d 23d1 de3f e36a 873e f450 adbd
00000150: 1fc4 d73f a474 ea3f 4b23 d93f 74bd 323f
00000160: 439e 383f a298 273e a5df dbbd aeaa 763e
00000170: 181d 113f 3efd 883e d230 b53e 3ed5 133f
00000180: 5587 563f 7e3d 3c3f ee31 c53d b190 0c3f
00000190: 3d8e eb3f cdeb d3bd e6b5 1d3f 018f f13f
000001a0: 9579 e13f 22ee 5c3f d32d 463e cf5d bb3e
000001b0: 1ded cf3f 9910 f33f 2733 2d3f 3378 ca3e
000001c0: 4068 d7bd 0a55 99bd 8198 093f e377 3cbe
000001d0: ddbb 883f a158 093f 7495 2fbb f28b 50bd
000001e0: 31ec d4bd e9dd 403f ecce 72bb aaf8 aabc
000001f0: ddbd f5bd 039b 883e 7b04 de3f 0c18 4a3f

fc4.weight f4 [4, 128]
0.4058712 -0.014456311 -0.13176145 0.06296934 1.2368404 -0.019758664 0.084782325 -0.024787815
-0.024915002 -0.04072479 0.29809195 0.4863682 0.1425567 0.32489905 0.030813951 0.16490501
-0.0046248306 -0.045945488 -0.056378365 -1.3081918 -0.053614136 0.09845184 0.38806653 0.35391787
0.19623125 0.45257056 -0.102452844 0.026165616 0.061948314 -0.022061605 0.414309 0.008247846
0.41559368 0.30716127 0.032607265 -0.029418379 0.06314835 0.043311365 -0.40351024 0.37321863
-3.0620067 0.31639805 -0.09139604 -0.073897064 -0.061273552 0.27993992 -0.15542309 -0.6151076
0.2675167 0.22136843 0.042444363 -0.0783601 -0.02833954 0.04431077 0.35263264 -0.14159189
0.07182565 0.4583719 0.3131905 0.4548464 -2.3171566 0.013802994 0.051770218 -0.19658822
0.8186511 0.04159579 0.86717004 0.46513623 0.36619422 -0.053666744 0.018891618 0.2699538
-0.06151599 0.2600846 0.6281168 0.014601862 0.040910076 0.3983123 -0.051770173 0.01243293
-0.26035938 0.4300967 0.065166876 0.047201633 0.42431757 0.46511304 0.46198204 0.42812085
-0.58242995 -0.49115762 -0.027773445 0.042458996 -3.037848 -0.46184912 -0.09913201 0.772315
0.2800076 0.4017472 0.055635456 0.12567006 0.47001362 0.012624487 0.67727566 0.491404
0.4046344 0.16668089 0.14014095 -2.6681044 0.41751847 0.4331477 -1.3619735 -0.24240541
0.021728197 0.023740929 0.76094186 -0.6061997 0.72653365 0.45730016 -0.02337395 -0.005572456
-0.059256334 0.12059828 -0.02455097 -0.058655474 0.04030052 -0.3158599 0.4538625 -3.2317703
0.4347963 -0.8167376 -0.18395026 0.087469794 0.6615039 -0.03291558 -0.009749036 -0.012799134
-0.005709971 -0.019103661 0.17306973 -2.853592 -0.12164076 0.2676007 -0.038180802 -0.030825794
0.0025073765 -0.07132224 0.010973808 -0.96923107 0.034737658 0.23107411 0.46765175 0.28700042
0.11656102 0.4145807 0.22830924 -0.15418546 -0.039187577 -0.053670876 0.4794115 0.17168339
-1.1147671 0.37477612 -0.004731773 0.06207069 -0.11515018 0.028404603 -0.12633613 0.4405556
0.95088184 0.35270065 -0.01437954 0.03386724 0.06352713 0.23715343 -0.6023908 0.066905215
-0.07429806 0.35714066 0.073423326 -0.0035148636 -0.032886054 0.055602927 0.42621648 0.42660704
-0.1671463 0.3986996 0.15922925 0.45085013 0.44710562 -0.0009870088 -0.034716383 -0.19904795
-3.845419 0.0032807353 -4.309971 0.47672293 0.50649506 -0.04140107 -0.022278339 0.28756237
0.013957528 -0.31954604 0.5988037 -0.048947126 0.06839586 0.4499213 -0.029345928 0.040434614
-0.4701365 0.4115236 0.14979617 0.011491462 0.28847998 0.49087712 0.4595499 0.113310985
0.035939053 0.84964603 -0.015588235 -0.07198731 0.26587754 0.12848225 -0.1996365 0.5199613
0.25071096 0.2982491 0.060639303 -0.007823046 0.41865262 -0.0436635 0.48705077 0.41026086
0.43760118 0.022277936 -0.13162002 0.72331387 0.36999038 0.48439494 0.4836487 0.0055333218
-0.010305877 -0.011602595 0.23323543 -0.029955558 0.5545597 0.5046116 -0.0069964374 0.08580838
0.030451825 0.25511703 -0.028762087 -0.010532329 -0.00048080273 -0.29258084 0.36516017 1.4243348
00000000: 5ace cf3e 2ada 6cbc 79ec 06be 12f6 803d
00000010: c950 9e3f ecdc a1bc 5ba2 ad3d d10f cbbc
00000020: 8c1a ccbc 0acf 26bd 829f 983e 4105 f93e
00000030: 62fa 113e 2b59 a63e 8a6d fc3c dcdc 283e
00000040: e48b 97bb 5631 3cbd 00ed 66bd d472 a7bf
00000050: 7f9a 5bbd 1ea1 c93d a8b0 c63e b934 b53e
00000060: d8f0 483e 54b7 e73e ccd2 d1bd 4659 d63c
00000070: 84bd 7d3d 8aba b4bc 4f20 d43e f921 073c
00000080: b2c8 d43e 3e44 9d3e 328f 053d d0fe f0bc
00000090: ec53 813d 4267 313d e598 cebe 8316 bf3e
000000a0: ebf7 43c0 edfe a13e d92d bbbd 5857 97bd
000000b0: faf9 7abd 4954 8f3e 3b27 1fbe b177 1dbf
000000c0: f3f7 883e 68ae 623e 24da 2d3d 437b a0bd
000000d0: 5328 e8bc 367f 353d 448c b43e 77fd 10be
000000e0: 5419 933d b9af ea3e 815a a03e a1e1 e83e
000000f0: 4b4c 14c0 f425 623c 020d 543d 6c4e 49be
00000100: 1e93 513f 5960 2a3d dbfe 5d3f 5626 ee3e
00000110: cf7d bb3e a9d1 5bbd 98c2 9a3c 6237 8a3e
00000120: 31f8 7bbd cf29 853e 43cc 203f a63c 6f3c
00000130: 5391 273d 97ef cb3e f60c 54bd 7db3 4b3c
00000140: d34d 85be a235 dc3e 3676 853d 8056 413d
00000150: 2740 d93e 4c23 ee3e e988 ec3e a832 db3e
00000160: 211a 15bf 0379 fbbe 2385 e3bc 7ce9 2d3d
00000170: 1a6c 42c0 7d77 ecbe b905 cbbd 70b6 453f
00000180: 285d 8f3e cfb1 cd3e 01e2 633d a7af 003e
00000190: a0a5 f03e f0d6 4e3c f061 2d3f 4e99 fb3e
000001a0: 3d2c cf3e 65ae 2a3e 1c81 0f3e 39c2 2ac0
000001b0: fbc4 d53e 89c5 dd3e 2655 aebf 2039 78be
000001c0: 55ff b13c 567c c23c 16cd 423f e72f 1bbf
000001d0: 1cfe 393f 3f23 ea3e ba7a bfbc 2699 b6bb
000001e0: c5b6 72bd 3bfc f63d 1e1f c9bc b940 70bd
000001f0: 2812 253d 64b8 a1be aa60 e83e 53d5 4ec0
00000200: 9f9d de3e b715 51bf 755d 3cbe 5d23 b33d
00000210: 5258 293f 7dd2 06bd 6cba 1fbc 75b3 51bc
00000220: b51a bbbb 487f 9cbc 3139 313e 40a1 36c0
00000230: ca1e f9bd f502 893e 7963 1cbd 6086 fcbc
00000240: cc52 243b 6511 92bd 7dcb 333c 871f 78bf
00000250: 1349 0e3d b19e 6c3e 0d70 ef3e b8f1 923e
00000260: 8bb7 ee3d ec43 d43e e6c9 693e cbe2 1dbe
00000270: 2783 20bd fed5 5bbd 6d75 f53e c5cd 2f3e
00000280: b0b0 8ebf a8e2 bf3e fd0c 9bbb d63d 7e3d
00000290: dcd3 ebbd c5b0 e83c 425e 01be 8190 e13e
000002a0: fe6c 733f 2e95 b43e 2a98 6bbc 60b8 0a3d
000002b0: 831a 823d 59d8 723e 4936 1abf 9a05 893d
000002c0: 9529 98bd 24db b63e f85e 963d a059 66bb
000002d0: 87b3 06bd e5bf 633d 0c39 da3e 3d6c da3e
000002e0: 6628 2bbe 5b22 cc3e fe0c 233e d4d5 e63e
000002f0: 07eb e43e 855e 81ba c432 0ebd 3ad3 4bbe
00000300: 581b 76c0 9b01 573b 48eb 89c0 0715 f43e
00000310: a9a9 013f 2b94 29bd 1081 b6bc 603b 933e
00000320: 1eae 643c 8a9b a3be 334b 193f c87c 48bd
00000330: 2113 8c3d 165c e63e df66 f0bc c49e 253d
00000340: bbb5 f0be 39b3 d23e 2b64 193e af46 3c3c
00000350: a6b3 933e 3f54 fb3e 204a eb3e 970f e83d
00000360: d434 133d 6782 593f cc65 7fbc 156e 93bd
00000370: 1a21 883e da90 033e 836d 4cbe 2f1c 053f
00000380: 305d 803e 1bb4 983e eb60 783d 3c2c 00bc
00000390: a359 d63e 80d8 32bd b85e f93e b60d d23e
000003a0: 430d e03e 3880 b63c 66c7 06be 192b 393f
000003b0: 616f bd3e 9d02 f83e cda0 f73e de50 b53b
000003c0: fbd9 28bc d018 3ebc 45d5 6e3e 5c65 f5bc
000003d0: a0f7 0d3f 3a2e 013f 5f42 e5bb 4ebc af3d
000003e0: 1b76 f93c b39e 823e 789e ebbc ca8f 2cbc
000003f0: 4014 fcb9 28cd 95be 46f6 ba3e 9a50 b63f

fc4.bias f4 [4]
1.4180106 1.4520968 1.3810228 2.1295972
00000000: 5f81 b53f 4fde b93f 5bc5 b03f 524b 0840
